program(1.0)
[buildInfo = dict<tensor<string, []>, tensor<string, []>>({{"coremlc-component-MIL", "5.33.5"}, {"coremlc-version", "1877.40.3"}, {"coremltools-component-torch", "2.1.0"}, {"coremltools-source-dialect", "TorchScript"}, {"coremltools-version", "8.0"}})]
{
    func main<ios15>(tensor<fp32, [1, 128, 3000]> logmel_data) {
            tensor<string, []> var_84_pad_type_0 = const()[name = tensor<string, []>("op_84_pad_type_0"), val = tensor<string, []>("custom")];
            tensor<int32, [2]> var_84_pad_0 = const()[name = tensor<string, []>("op_84_pad_0"), val = tensor<int32, [2]>([1, 1])];
            tensor<int32, [1]> var_84_strides_0 = const()[name = tensor<string, []>("op_84_strides_0"), val = tensor<int32, [1]>([1])];
            tensor<int32, [1]> var_84_dilations_0 = const()[name = tensor<string, []>("op_84_dilations_0"), val = tensor<int32, [1]>([1])];
            tensor<int32, []> var_84_groups_0 = const()[name = tensor<string, []>("op_84_groups_0"), val = tensor<int32, []>(1)];
            tensor<string, []> logmel_data_to_fp16_dtype_0 = const()[name = tensor<string, []>("logmel_data_to_fp16_dtype_0"), val = tensor<string, []>("fp16")];
            tensor<fp16, [1280, 128, 3]> weight_3_to_fp16 = const()[name = tensor<string, []>("weight_3_to_fp16"), val = tensor<fp16, [1280, 128, 3]>(BLOBFILE(path = tensor<string, []>("@model_path/weights/weight.bin"), offset = tensor<uint64, []>(64)))];
            tensor<fp16, [1280]> bias_3_to_fp16 = const()[name = tensor<string, []>("bias_3_to_fp16"), val = tensor<fp16, [1280]>(BLOBFILE(path = tensor<string, []>("@model_path/weights/weight.bin"), offset = tensor<uint64, []>(983168)))];
            tensor<fp16, [1, 128, 3000]> logmel_data_to_fp16 = cast(dtype = logmel_data_to_fp16_dtype_0, x = logmel_data)[name = tensor<string, []>("cast_131")];
            tensor<fp16, [1, 1280, 3000]> var_84_cast_fp16 = conv(bias = bias_3_to_fp16, dilations = var_84_dilations_0, groups = var_84_groups_0, pad = var_84_pad_0, pad_type = var_84_pad_type_0, strides = var_84_strides_0, weight = weight_3_to_fp16, x = logmel_data_to_fp16)[name = tensor<string, []>("op_84_cast_fp16")];
            tensor<string, []> input_1_mode_0 = const()[name = tensor<string, []>("input_1_mode_0"), val = tensor<string, []>("EXACT")];
            tensor<fp16, [1, 1280, 3000]> input_1_cast_fp16 = gelu(mode = input_1_mode_0, x = var_84_cast_fp16)[name = tensor<string, []>("input_1_cast_fp16")];
            tensor<string, []> var_102_pad_type_0 = const()[name = tensor<string, []>("op_102_pad_type_0"), val = tensor<string, []>("custom")];
            tensor<int32, [2]> var_102_pad_0 = const()[name = tensor<string, []>("op_102_pad_0"), val = tensor<int32, [2]>([1, 1])];
            tensor<int32, [1]> var_102_strides_0 = const()[name = tensor<string, []>("op_102_strides_0"), val = tensor<int32, [1]>([2])];
            tensor<int32, [1]> var_102_dilations_0 = const()[name = tensor<string, []>("op_102_dilations_0"), val = tensor<int32, [1]>([1])];
            tensor<int32, []> var_102_groups_0 = const()[name = tensor<string, []>("op_102_groups_0"), val = tensor<int32, []>(1)];
            tensor<fp16, [1280, 1280, 3]> weight_7_to_fp16 = const()[name = tensor<string, []>("weight_7_to_fp16"), val = tensor<fp16, [1280, 1280, 3]>(BLOBFILE(path = tensor<string, []>("@model_path/weights/weight.bin"), offset = tensor<uint64, []>(985792)))];
            tensor<fp16, [1280]> bias_7_to_fp16 = const()[name = tensor<string, []>("bias_7_to_fp16"), val = tensor<fp16, [1280]>(BLOBFILE(path = tensor<string, []>("@model_path/weights/weight.bin"), offset = tensor<uint64, []>(10816256)))];
            tensor<fp16, [1, 1280, 1500]> var_102_cast_fp16 = conv(bias = bias_7_to_fp16, dilations = var_102_dilations_0, groups = var_102_groups_0, pad = var_102_pad_0, pad_type = var_102_pad_type_0, strides = var_102_strides_0, weight = weight_7_to_fp16, x = input_1_cast_fp16)[name = tensor<string, []>("op_102_cast_fp16")];
            tensor<string, []> x_3_mode_0 = const()[name = tensor<string, []>("x_3_mode_0"), val = tensor<string, []>("EXACT")];
            tensor<fp16, [1, 1280, 1500]> x_3_cast_fp16 = gelu(mode = x_3_mode_0, x = var_102_cast_fp16)[name = tensor<string, []>("x_3_cast_fp16")];
            tensor<fp16, [1280, 1500]> var_107_to_fp16 = const()[name = tensor<string, []>("op_107_to_fp16"), val = tensor<fp16, [1280, 1500]>(BLOBFILE(path = tensor<string, []>("@model_path/weights/weight.bin"), offset = tensor<uint64, []>(10818880)))];
            tensor<fp16, [1, 1280, 1500]> var_109_cast_fp16 = add(x = x_3_cast_fp16, y = var_107_to_fp16)[name = tensor<string, []>("op_109_cast_fp16")];
            tensor<int32, [1]> inputs_1_axes_0 = const()[name = tensor<string, []>("inputs_1_axes_0"), val = tensor<int32, [1]>([2])];
            tensor<fp16, [1, 1280, 1, 1500]> inputs_1_cast_fp16 = expand_dims(axes = inputs_1_axes_0, x = var_109_cast_fp16)[name = tensor<string, []>("inputs_1_cast_fp16")];
            tensor<int32, []> var_124 = const()[name = tensor<string, []>("op_124"), val = tensor<int32, []>(1)];
            tensor<int32, [1]> input_3_axes_0 = const()[name = tensor<string, []>("input_3_axes_0"), val = tensor<int32, [1]>([1])];
            tensor<fp16, [1280]> input_3_gamma_0_to_fp16 = const()[name = tensor<string, []>("input_3_gamma_0_to_fp16"), val = tensor<fp16, [1280]>(BLOBFILE(path = tensor<string, []>("@model_path/weights/weight.bin"), offset = tensor<uint64, []>(14658944)))];
            tensor<fp16, [1280]> input_3_beta_0_to_fp16 = const()[name = tensor<string, []>("input_3_beta_0_to_fp16"), val = tensor<fp16, [1280]>(BLOBFILE(path = tensor<string, []>("@model_path/weights/weight.bin"), offset = tensor<uint64, []>(14661568)))];
            tensor<fp16, []> var_140_to_fp16 = const()[name = tensor<string, []>("op_140_to_fp16"), val = tensor<fp16, []>(0x1.5p-17)];
            tensor<fp16, [1, 1280, 1, 1500]> input_3_cast_fp16 = layer_norm(axes = input_3_axes_0, beta = input_3_beta_0_to_fp16, epsilon = var_140_to_fp16, gamma = input_3_gamma_0_to_fp16, x = inputs_1_cast_fp16)[name = tensor<string, []>("input_3_cast_fp16")];
            tensor<string, []> q_1_pad_type_0 = const()[name = tensor<string, []>("q_1_pad_type_0"), val = tensor<string, []>("valid")];
            tensor<int32, [2]> q_1_strides_0 = const()[name = tensor<string, []>("q_1_strides_0"), val = tensor<int32, [2]>([1, 1])];
            tensor<int32, [4]> q_1_pad_0 = const()[name = tensor<string, []>("q_1_pad_0"), val = tensor<int32, [4]>([0, 0, 0, 0])];
            tensor<int32, [2]> q_1_dilations_0 = const()[name = tensor<string, []>("q_1_dilations_0"), val = tensor<int32, [2]>([1, 1])];
            tensor<int32, []> q_1_groups_0 = const()[name = tensor<string, []>("q_1_groups_0"), val = tensor<int32, []>(1)];
            tensor<fp16, [1280, 1280, 1, 1]> var_175_weight_0_to_fp16 = const()[name = tensor<string, []>("op_175_weight_0_to_fp16"), val = tensor<fp16, [1280, 1280, 1, 1]>(BLOBFILE(path = tensor<string, []>("@model_path/weights/weight.bin"), offset = tensor<uint64, []>(14664192)))];
            tensor<fp16, [1280]> var_175_bias_0_to_fp16 = const()[name = tensor<string, []>("op_175_bias_0_to_fp16"), val = tensor<fp16, [1280]>(BLOBFILE(path = tensor<string, []>("@model_path/weights/weight.bin"), offset = tensor<uint64, []>(17941056)))];
            tensor<fp16, [1, 1280, 1, 1500]> var_175_cast_fp16 = conv(bias = var_175_bias_0_to_fp16, dilations = q_1_dilations_0, groups = q_1_groups_0, pad = q_1_pad_0, pad_type = q_1_pad_type_0, strides = q_1_strides_0, weight = var_175_weight_0_to_fp16, x = input_3_cast_fp16)[name = tensor<string, []>("op_175_cast_fp16")];
            tensor<string, []> k_1_pad_type_0 = const()[name = tensor<string, []>("k_1_pad_type_0"), val = tensor<string, []>("valid")];
            tensor<int32, [2]> k_1_strides_0 = const()[name = tensor<string, []>("k_1_strides_0"), val = tensor<int32, [2]>([1, 1])];
            tensor<int32, [4]> k_1_pad_0 = const()[name = tensor<string, []>("k_1_pad_0"), val = tensor<int32, [4]>([0, 0, 0, 0])];
            tensor<int32, [2]> k_1_dilations_0 = const()[name = tensor<string, []>("k_1_dilations_0"), val = tensor<int32, [2]>([1, 1])];
            tensor<int32, []> k_1_groups_0 = const()[name = tensor<string, []>("k_1_groups_0"), val = tensor<int32, []>(1)];
            tensor<fp16, [1280, 1280, 1, 1]> blocks_0_attn_key_weight_to_fp16 = const()[name = tensor<string, []>("blocks_0_attn_key_weight_to_fp16"), val = tensor<fp16, [1280, 1280, 1, 1]>(BLOBFILE(path = tensor<string, []>("@model_path/weights/weight.bin"), offset = tensor<uint64, []>(17943680)))];
            tensor<fp16, [1, 1280, 1, 1500]> k_1_cast_fp16 = conv(dilations = k_1_dilations_0, groups = k_1_groups_0, pad = k_1_pad_0, pad_type = k_1_pad_type_0, strides = k_1_strides_0, weight = blocks_0_attn_key_weight_to_fp16, x = input_3_cast_fp16)[name = tensor<string, []>("k_1_cast_fp16")];
            tensor<string, []> var_173_pad_type_0 = const()[name = tensor<string, []>("op_173_pad_type_0"), val = tensor<string, []>("valid")];
            tensor<int32, [2]> var_173_strides_0 = const()[name = tensor<string, []>("op_173_strides_0"), val = tensor<int32, [2]>([1, 1])];
            tensor<int32, [4]> var_173_pad_0 = const()[name = tensor<string, []>("op_173_pad_0"), val = tensor<int32, [4]>([0, 0, 0, 0])];
            tensor<int32, [2]> var_173_dilations_0 = const()[name = tensor<string, []>("op_173_dilations_0"), val = tensor<int32, [2]>([1, 1])];
            tensor<int32, []> var_173_groups_0 = const()[name = tensor<string, []>("op_173_groups_0"), val = tensor<int32, []>(1)];
            tensor<fp16, [1280, 1280, 1, 1]> blocks_0_attn_value_weight_to_fp16 = const()[name = tensor<string, []>("blocks_0_attn_value_weight_to_fp16"), val = tensor<fp16, [1280, 1280, 1, 1]>(BLOBFILE(path = tensor<string, []>("@model_path/weights/weight.bin"), offset = tensor<uint64, []>(21220544)))];
            tensor<fp16, [1280]> blocks_0_attn_value_bias_to_fp16 = const()[name = tensor<string, []>("blocks_0_attn_value_bias_to_fp16"), val = tensor<fp16, [1280]>(BLOBFILE(path = tensor<string, []>("@model_path/weights/weight.bin"), offset = tensor<uint64, []>(24497408)))];
            tensor<fp16, [1, 1280, 1, 1500]> var_173_cast_fp16 = conv(bias = blocks_0_attn_value_bias_to_fp16, dilations = var_173_dilations_0, groups = var_173_groups_0, pad = var_173_pad_0, pad_type = var_173_pad_type_0, strides = var_173_strides_0, weight = blocks_0_attn_value_weight_to_fp16, x = input_3_cast_fp16)[name = tensor<string, []>("op_173_cast_fp16")];
            tensor<int32, [20]> tile_0 = const()[name = tensor<string, []>("tile_0"), val = tensor<int32, [20]>([64, 64, 64, 64, 64, 64, 64, 64, 64, 64, 64, 64, 64, 64, 64, 64, 64, 64, 64, 64])];
            tensor<int32, []> var_176_axis_0 = const()[name = tensor<string, []>("op_176_axis_0"), val = tensor<int32, []>(1)];
            tensor<fp16, [1, 64, 1, 1500]> var_176_cast_fp16_0, tensor<fp16, [1, 64, 1, 1500]> var_176_cast_fp16_1, tensor<fp16, [1, 64, 1, 1500]> var_176_cast_fp16_2, tensor<fp16, [1, 64, 1, 1500]> var_176_cast_fp16_3, tensor<fp16, [1, 64, 1, 1500]> var_176_cast_fp16_4, tensor<fp16, [1, 64, 1, 1500]> var_176_cast_fp16_5, tensor<fp16, [1, 64, 1, 1500]> var_176_cast_fp16_6, tensor<fp16, [1, 64, 1, 1500]> var_176_cast_fp16_7, tensor<fp16, [1, 64, 1, 1500]> var_176_cast_fp16_8, tensor<fp16, [1, 64, 1, 1500]> var_176_cast_fp16_9, tensor<fp16, [1, 64, 1, 1500]> var_176_cast_fp16_10, tensor<fp16, [1, 64, 1, 1500]> var_176_cast_fp16_11, tensor<fp16, [1, 64, 1, 1500]> var_176_cast_fp16_12, tensor<fp16, [1, 64, 1, 1500]> var_176_cast_fp16_13, tensor<fp16, [1, 64, 1, 1500]> var_176_cast_fp16_14, tensor<fp16, [1, 64, 1, 1500]> var_176_cast_fp16_15, tensor<fp16, [1, 64, 1, 1500]> var_176_cast_fp16_16, tensor<fp16, [1, 64, 1, 1500]> var_176_cast_fp16_17, tensor<fp16, [1, 64, 1, 1500]> var_176_cast_fp16_18, tensor<fp16, [1, 64, 1, 1500]> var_176_cast_fp16_19 = split(axis = var_176_axis_0, split_sizes = tile_0, x = var_175_cast_fp16)[name = tensor<string, []>("op_176_cast_fp16")];
            tensor<int32, [4]> var_197_perm_0 = const()[name = tensor<string, []>("op_197_perm_0"), val = tensor<int32, [4]>([0, 3, 2, 1])];
            tensor<int32, [20]> tile_1 = const()[name = tensor<string, []>("tile_1"), val = tensor<int32, [20]>([64, 64, 64, 64, 64, 64, 64, 64, 64, 64, 64, 64, 64, 64, 64, 64, 64, 64, 64, 64])];
            tensor<int32, []> var_198_axis_0 = const()[name = tensor<string, []>("op_198_axis_0"), val = tensor<int32, []>(3)];
            tensor<fp16, [1, 1500, 1, 1280]> var_197_cast_fp16 = transpose(perm = var_197_perm_0, x = k_1_cast_fp16)[name = tensor<string, []>("transpose_32")];
            tensor<fp16, [1, 1500, 1, 64]> var_198_cast_fp16_0, tensor<fp16, [1, 1500, 1, 64]> var_198_cast_fp16_1, tensor<fp16, [1, 1500, 1, 64]> var_198_cast_fp16_2, tensor<fp16, [1, 1500, 1, 64]> var_198_cast_fp16_3, tensor<fp16, [1, 1500, 1, 64]> var_198_cast_fp16_4, tensor<fp16, [1, 1500, 1, 64]> var_198_cast_fp16_5, tensor<fp16, [1, 1500, 1, 64]> var_198_cast_fp16_6, tensor<fp16, [1, 1500, 1, 64]> var_198_cast_fp16_7, tensor<fp16, [1, 1500, 1, 64]> var_198_cast_fp16_8, tensor<fp16, [1, 1500, 1, 64]> var_198_cast_fp16_9, tensor<fp16, [1, 1500, 1, 64]> var_198_cast_fp16_10, tensor<fp16, [1, 1500, 1, 64]> var_198_cast_fp16_11, tensor<fp16, [1, 1500, 1, 64]> var_198_cast_fp16_12, tensor<fp16, [1, 1500, 1, 64]> var_198_cast_fp16_13, tensor<fp16, [1, 1500, 1, 64]> var_198_cast_fp16_14, tensor<fp16, [1, 1500, 1, 64]> var_198_cast_fp16_15, tensor<fp16, [1, 1500, 1, 64]> var_198_cast_fp16_16, tensor<fp16, [1, 1500, 1, 64]> var_198_cast_fp16_17, tensor<fp16, [1, 1500, 1, 64]> var_198_cast_fp16_18, tensor<fp16, [1, 1500, 1, 64]> var_198_cast_fp16_19 = split(axis = var_198_axis_0, split_sizes = tile_1, x = var_197_cast_fp16)[name = tensor<string, []>("op_198_cast_fp16")];
            tensor<int32, [20]> tile_2 = const()[name = tensor<string, []>("tile_2"), val = tensor<int32, [20]>([64, 64, 64, 64, 64, 64, 64, 64, 64, 64, 64, 64, 64, 64, 64, 64, 64, 64, 64, 64])];
            tensor<int32, []> var_219_axis_0 = const()[name = tensor<string, []>("op_219_axis_0"), val = tensor<int32, []>(1)];
            tensor<fp16, [1, 64, 1, 1500]> var_219_cast_fp16_0, tensor<fp16, [1, 64, 1, 1500]> var_219_cast_fp16_1, tensor<fp16, [1, 64, 1, 1500]> var_219_cast_fp16_2, tensor<fp16, [1, 64, 1, 1500]> var_219_cast_fp16_3, tensor<fp16, [1, 64, 1, 1500]> var_219_cast_fp16_4, tensor<fp16, [1, 64, 1, 1500]> var_219_cast_fp16_5, tensor<fp16, [1, 64, 1, 1500]> var_219_cast_fp16_6, tensor<fp16, [1, 64, 1, 1500]> var_219_cast_fp16_7, tensor<fp16, [1, 64, 1, 1500]> var_219_cast_fp16_8, tensor<fp16, [1, 64, 1, 1500]> var_219_cast_fp16_9, tensor<fp16, [1, 64, 1, 1500]> var_219_cast_fp16_10, tensor<fp16, [1, 64, 1, 1500]> var_219_cast_fp16_11, tensor<fp16, [1, 64, 1, 1500]> var_219_cast_fp16_12, tensor<fp16, [1, 64, 1, 1500]> var_219_cast_fp16_13, tensor<fp16, [1, 64, 1, 1500]> var_219_cast_fp16_14, tensor<fp16, [1, 64, 1, 1500]> var_219_cast_fp16_15, tensor<fp16, [1, 64, 1, 1500]> var_219_cast_fp16_16, tensor<fp16, [1, 64, 1, 1500]> var_219_cast_fp16_17, tensor<fp16, [1, 64, 1, 1500]> var_219_cast_fp16_18, tensor<fp16, [1, 64, 1, 1500]> var_219_cast_fp16_19 = split(axis = var_219_axis_0, split_sizes = tile_2, x = var_173_cast_fp16)[name = tensor<string, []>("op_219_cast_fp16")];
            tensor<string, []> aw_1_equation_0 = const()[name = tensor<string, []>("aw_1_equation_0"), val = tensor<string, []>("bkhc,bchq->bkhq")];
            tensor<fp16, [1, 1500, 1, 1500]> aw_1_cast_fp16 = einsum(equation = aw_1_equation_0, values = (var_198_cast_fp16_0, var_176_cast_fp16_0))[name = tensor<string, []>("aw_1_cast_fp16")];
            tensor<string, []> aw_3_equation_0 = const()[name = tensor<string, []>("aw_3_equation_0"), val = tensor<string, []>("bkhc,bchq->bkhq")];
            tensor<fp16, [1, 1500, 1, 1500]> aw_3_cast_fp16 = einsum(equation = aw_3_equation_0, values = (var_198_cast_fp16_1, var_176_cast_fp16_1))[name = tensor<string, []>("aw_3_cast_fp16")];
            tensor<string, []> aw_5_equation_0 = const()[name = tensor<string, []>("aw_5_equation_0"), val = tensor<string, []>("bkhc,bchq->bkhq")];
            tensor<fp16, [1, 1500, 1, 1500]> aw_5_cast_fp16 = einsum(equation = aw_5_equation_0, values = (var_198_cast_fp16_2, var_176_cast_fp16_2))[name = tensor<string, []>("aw_5_cast_fp16")];
            tensor<string, []> aw_7_equation_0 = const()[name = tensor<string, []>("aw_7_equation_0"), val = tensor<string, []>("bkhc,bchq->bkhq")];
            tensor<fp16, [1, 1500, 1, 1500]> aw_7_cast_fp16 = einsum(equation = aw_7_equation_0, values = (var_198_cast_fp16_3, var_176_cast_fp16_3))[name = tensor<string, []>("aw_7_cast_fp16")];
            tensor<string, []> aw_9_equation_0 = const()[name = tensor<string, []>("aw_9_equation_0"), val = tensor<string, []>("bkhc,bchq->bkhq")];
            tensor<fp16, [1, 1500, 1, 1500]> aw_9_cast_fp16 = einsum(equation = aw_9_equation_0, values = (var_198_cast_fp16_4, var_176_cast_fp16_4))[name = tensor<string, []>("aw_9_cast_fp16")];
            tensor<string, []> aw_11_equation_0 = const()[name = tensor<string, []>("aw_11_equation_0"), val = tensor<string, []>("bkhc,bchq->bkhq")];
            tensor<fp16, [1, 1500, 1, 1500]> aw_11_cast_fp16 = einsum(equation = aw_11_equation_0, values = (var_198_cast_fp16_5, var_176_cast_fp16_5))[name = tensor<string, []>("aw_11_cast_fp16")];
            tensor<string, []> aw_13_equation_0 = const()[name = tensor<string, []>("aw_13_equation_0"), val = tensor<string, []>("bkhc,bchq->bkhq")];
            tensor<fp16, [1, 1500, 1, 1500]> aw_13_cast_fp16 = einsum(equation = aw_13_equation_0, values = (var_198_cast_fp16_6, var_176_cast_fp16_6))[name = tensor<string, []>("aw_13_cast_fp16")];
            tensor<string, []> aw_15_equation_0 = const()[name = tensor<string, []>("aw_15_equation_0"), val = tensor<string, []>("bkhc,bchq->bkhq")];
            tensor<fp16, [1, 1500, 1, 1500]> aw_15_cast_fp16 = einsum(equation = aw_15_equation_0, values = (var_198_cast_fp16_7, var_176_cast_fp16_7))[name = tensor<string, []>("aw_15_cast_fp16")];
            tensor<string, []> aw_17_equation_0 = const()[name = tensor<string, []>("aw_17_equation_0"), val = tensor<string, []>("bkhc,bchq->bkhq")];
            tensor<fp16, [1, 1500, 1, 1500]> aw_17_cast_fp16 = einsum(equation = aw_17_equation_0, values = (var_198_cast_fp16_8, var_176_cast_fp16_8))[name = tensor<string, []>("aw_17_cast_fp16")];
            tensor<string, []> aw_19_equation_0 = const()[name = tensor<string, []>("aw_19_equation_0"), val = tensor<string, []>("bkhc,bchq->bkhq")];
            tensor<fp16, [1, 1500, 1, 1500]> aw_19_cast_fp16 = einsum(equation = aw_19_equation_0, values = (var_198_cast_fp16_9, var_176_cast_fp16_9))[name = tensor<string, []>("aw_19_cast_fp16")];
            tensor<string, []> aw_21_equation_0 = const()[name = tensor<string, []>("aw_21_equation_0"), val = tensor<string, []>("bkhc,bchq->bkhq")];
            tensor<fp16, [1, 1500, 1, 1500]> aw_21_cast_fp16 = einsum(equation = aw_21_equation_0, values = (var_198_cast_fp16_10, var_176_cast_fp16_10))[name = tensor<string, []>("aw_21_cast_fp16")];
            tensor<string, []> aw_23_equation_0 = const()[name = tensor<string, []>("aw_23_equation_0"), val = tensor<string, []>("bkhc,bchq->bkhq")];
            tensor<fp16, [1, 1500, 1, 1500]> aw_23_cast_fp16 = einsum(equation = aw_23_equation_0, values = (var_198_cast_fp16_11, var_176_cast_fp16_11))[name = tensor<string, []>("aw_23_cast_fp16")];
            tensor<string, []> aw_25_equation_0 = const()[name = tensor<string, []>("aw_25_equation_0"), val = tensor<string, []>("bkhc,bchq->bkhq")];
            tensor<fp16, [1, 1500, 1, 1500]> aw_25_cast_fp16 = einsum(equation = aw_25_equation_0, values = (var_198_cast_fp16_12, var_176_cast_fp16_12))[name = tensor<string, []>("aw_25_cast_fp16")];
            tensor<string, []> aw_27_equation_0 = const()[name = tensor<string, []>("aw_27_equation_0"), val = tensor<string, []>("bkhc,bchq->bkhq")];
            tensor<fp16, [1, 1500, 1, 1500]> aw_27_cast_fp16 = einsum(equation = aw_27_equation_0, values = (var_198_cast_fp16_13, var_176_cast_fp16_13))[name = tensor<string, []>("aw_27_cast_fp16")];
            tensor<string, []> aw_29_equation_0 = const()[name = tensor<string, []>("aw_29_equation_0"), val = tensor<string, []>("bkhc,bchq->bkhq")];
            tensor<fp16, [1, 1500, 1, 1500]> aw_29_cast_fp16 = einsum(equation = aw_29_equation_0, values = (var_198_cast_fp16_14, var_176_cast_fp16_14))[name = tensor<string, []>("aw_29_cast_fp16")];
            tensor<string, []> aw_31_equation_0 = const()[name = tensor<string, []>("aw_31_equation_0"), val = tensor<string, []>("bkhc,bchq->bkhq")];
            tensor<fp16, [1, 1500, 1, 1500]> aw_31_cast_fp16 = einsum(equation = aw_31_equation_0, values = (var_198_cast_fp16_15, var_176_cast_fp16_15))[name = tensor<string, []>("aw_31_cast_fp16")];
            tensor<string, []> aw_33_equation_0 = const()[name = tensor<string, []>("aw_33_equation_0"), val = tensor<string, []>("bkhc,bchq->bkhq")];
            tensor<fp16, [1, 1500, 1, 1500]> aw_33_cast_fp16 = einsum(equation = aw_33_equation_0, values = (var_198_cast_fp16_16, var_176_cast_fp16_16))[name = tensor<string, []>("aw_33_cast_fp16")];
            tensor<string, []> aw_35_equation_0 = const()[name = tensor<string, []>("aw_35_equation_0"), val = tensor<string, []>("bkhc,bchq->bkhq")];
            tensor<fp16, [1, 1500, 1, 1500]> aw_35_cast_fp16 = einsum(equation = aw_35_equation_0, values = (var_198_cast_fp16_17, var_176_cast_fp16_17))[name = tensor<string, []>("aw_35_cast_fp16")];
            tensor<string, []> aw_37_equation_0 = const()[name = tensor<string, []>("aw_37_equation_0"), val = tensor<string, []>("bkhc,bchq->bkhq")];
            tensor<fp16, [1, 1500, 1, 1500]> aw_37_cast_fp16 = einsum(equation = aw_37_equation_0, values = (var_198_cast_fp16_18, var_176_cast_fp16_18))[name = tensor<string, []>("aw_37_cast_fp16")];
            tensor<string, []> aw_39_equation_0 = const()[name = tensor<string, []>("aw_39_equation_0"), val = tensor<string, []>("bkhc,bchq->bkhq")];
            tensor<fp16, [1, 1500, 1, 1500]> aw_39_cast_fp16 = einsum(equation = aw_39_equation_0, values = (var_198_cast_fp16_19, var_176_cast_fp16_19))[name = tensor<string, []>("aw_39_cast_fp16")];
            tensor<fp16, [1, 1500, 1, 1500]> var_280_cast_fp16 = softmax(axis = var_124, x = aw_1_cast_fp16)[name = tensor<string, []>("op_280_cast_fp16")];
            tensor<fp16, [1, 1500, 1, 1500]> var_281_cast_fp16 = softmax(axis = var_124, x = aw_3_cast_fp16)[name = tensor<string, []>("op_281_cast_fp16")];
            tensor<fp16, [1, 1500, 1, 1500]> var_282_cast_fp16 = softmax(axis = var_124, x = aw_5_cast_fp16)[name = tensor<string, []>("op_282_cast_fp16")];
            tensor<fp16, [1, 1500, 1, 1500]> var_283_cast_fp16 = softmax(axis = var_124, x = aw_7_cast_fp16)[name = tensor<string, []>("op_283_cast_fp16")];
            tensor<fp16, [1, 1500, 1, 1500]> var_284_cast_fp16 = softmax(axis = var_124, x = aw_9_cast_fp16)[name = tensor<string, []>("op_284_cast_fp16")];
            tensor<fp16, [1, 1500, 1, 1500]> var_285_cast_fp16 = softmax(axis = var_124, x = aw_11_cast_fp16)[name = tensor<string, []>("op_285_cast_fp16")];
            tensor<fp16, [1, 1500, 1, 1500]> var_286_cast_fp16 = softmax(axis = var_124, x = aw_13_cast_fp16)[name = tensor<string, []>("op_286_cast_fp16")];
            tensor<fp16, [1, 1500, 1, 1500]> var_287_cast_fp16 = softmax(axis = var_124, x = aw_15_cast_fp16)[name = tensor<string, []>("op_287_cast_fp16")];
            tensor<fp16, [1, 1500, 1, 1500]> var_288_cast_fp16 = softmax(axis = var_124, x = aw_17_cast_fp16)[name = tensor<string, []>("op_288_cast_fp16")];
            tensor<fp16, [1, 1500, 1, 1500]> var_289_cast_fp16 = softmax(axis = var_124, x = aw_19_cast_fp16)[name = tensor<string, []>("op_289_cast_fp16")];
            tensor<fp16, [1, 1500, 1, 1500]> var_290_cast_fp16 = softmax(axis = var_124, x = aw_21_cast_fp16)[name = tensor<string, []>("op_290_cast_fp16")];
            tensor<fp16, [1, 1500, 1, 1500]> var_291_cast_fp16 = softmax(axis = var_124, x = aw_23_cast_fp16)[name = tensor<string, []>("op_291_cast_fp16")];
            tensor<fp16, [1, 1500, 1, 1500]> var_292_cast_fp16 = softmax(axis = var_124, x = aw_25_cast_fp16)[name = tensor<string, []>("op_292_cast_fp16")];
            tensor<fp16, [1, 1500, 1, 1500]> var_293_cast_fp16 = softmax(axis = var_124, x = aw_27_cast_fp16)[name = tensor<string, []>("op_293_cast_fp16")];
            tensor<fp16, [1, 1500, 1, 1500]> var_294_cast_fp16 = softmax(axis = var_124, x = aw_29_cast_fp16)[name = tensor<string, []>("op_294_cast_fp16")];
            tensor<fp16, [1, 1500, 1, 1500]> var_295_cast_fp16 = softmax(axis = var_124, x = aw_31_cast_fp16)[name = tensor<string, []>("op_295_cast_fp16")];
            tensor<fp16, [1, 1500, 1, 1500]> var_296_cast_fp16 = softmax(axis = var_124, x = aw_33_cast_fp16)[name = tensor<string, []>("op_296_cast_fp16")];
            tensor<fp16, [1, 1500, 1, 1500]> var_297_cast_fp16 = softmax(axis = var_124, x = aw_35_cast_fp16)[name = tensor<string, []>("op_297_cast_fp16")];
            tensor<fp16, [1, 1500, 1, 1500]> var_298_cast_fp16 = softmax(axis = var_124, x = aw_37_cast_fp16)[name = tensor<string, []>("op_298_cast_fp16")];
            tensor<fp16, [1, 1500, 1, 1500]> var_299_cast_fp16 = softmax(axis = var_124, x = aw_39_cast_fp16)[name = tensor<string, []>("op_299_cast_fp16")];
            tensor<string, []> var_301_equation_0 = const()[name = tensor<string, []>("op_301_equation_0"), val = tensor<string, []>("bchk,bkhq->bchq")];
            tensor<fp16, [1, 64, 1, 1500]> var_301_cast_fp16 = einsum(equation = var_301_equation_0, values = (var_219_cast_fp16_0, var_280_cast_fp16))[name = tensor<string, []>("op_301_cast_fp16")];
            tensor<string, []> var_303_equation_0 = const()[name = tensor<string, []>("op_303_equation_0"), val = tensor<string, []>("bchk,bkhq->bchq")];
            tensor<fp16, [1, 64, 1, 1500]> var_303_cast_fp16 = einsum(equation = var_303_equation_0, values = (var_219_cast_fp16_1, var_281_cast_fp16))[name = tensor<string, []>("op_303_cast_fp16")];
            tensor<string, []> var_305_equation_0 = const()[name = tensor<string, []>("op_305_equation_0"), val = tensor<string, []>("bchk,bkhq->bchq")];
            tensor<fp16, [1, 64, 1, 1500]> var_305_cast_fp16 = einsum(equation = var_305_equation_0, values = (var_219_cast_fp16_2, var_282_cast_fp16))[name = tensor<string, []>("op_305_cast_fp16")];
            tensor<string, []> var_307_equation_0 = const()[name = tensor<string, []>("op_307_equation_0"), val = tensor<string, []>("bchk,bkhq->bchq")];
            tensor<fp16, [1, 64, 1, 1500]> var_307_cast_fp16 = einsum(equation = var_307_equation_0, values = (var_219_cast_fp16_3, var_283_cast_fp16))[name = tensor<string, []>("op_307_cast_fp16")];
            tensor<string, []> var_309_equation_0 = const()[name = tensor<string, []>("op_309_equation_0"), val = tensor<string, []>("bchk,bkhq->bchq")];
            tensor<fp16, [1, 64, 1, 1500]> var_309_cast_fp16 = einsum(equation = var_309_equation_0, values = (var_219_cast_fp16_4, var_284_cast_fp16))[name = tensor<string, []>("op_309_cast_fp16")];
            tensor<string, []> var_311_equation_0 = const()[name = tensor<string, []>("op_311_equation_0"), val = tensor<string, []>("bchk,bkhq->bchq")];
            tensor<fp16, [1, 64, 1, 1500]> var_311_cast_fp16 = einsum(equation = var_311_equation_0, values = (var_219_cast_fp16_5, var_285_cast_fp16))[name = tensor<string, []>("op_311_cast_fp16")];
            tensor<string, []> var_313_equation_0 = const()[name = tensor<string, []>("op_313_equation_0"), val = tensor<string, []>("bchk,bkhq->bchq")];
            tensor<fp16, [1, 64, 1, 1500]> var_313_cast_fp16 = einsum(equation = var_313_equation_0, values = (var_219_cast_fp16_6, var_286_cast_fp16))[name = tensor<string, []>("op_313_cast_fp16")];
            tensor<string, []> var_315_equation_0 = const()[name = tensor<string, []>("op_315_equation_0"), val = tensor<string, []>("bchk,bkhq->bchq")];
            tensor<fp16, [1, 64, 1, 1500]> var_315_cast_fp16 = einsum(equation = var_315_equation_0, values = (var_219_cast_fp16_7, var_287_cast_fp16))[name = tensor<string, []>("op_315_cast_fp16")];
            tensor<string, []> var_317_equation_0 = const()[name = tensor<string, []>("op_317_equation_0"), val = tensor<string, []>("bchk,bkhq->bchq")];
            tensor<fp16, [1, 64, 1, 1500]> var_317_cast_fp16 = einsum(equation = var_317_equation_0, values = (var_219_cast_fp16_8, var_288_cast_fp16))[name = tensor<string, []>("op_317_cast_fp16")];
            tensor<string, []> var_319_equation_0 = const()[name = tensor<string, []>("op_319_equation_0"), val = tensor<string, []>("bchk,bkhq->bchq")];
            tensor<fp16, [1, 64, 1, 1500]> var_319_cast_fp16 = einsum(equation = var_319_equation_0, values = (var_219_cast_fp16_9, var_289_cast_fp16))[name = tensor<string, []>("op_319_cast_fp16")];
            tensor<string, []> var_321_equation_0 = const()[name = tensor<string, []>("op_321_equation_0"), val = tensor<string, []>("bchk,bkhq->bchq")];
            tensor<fp16, [1, 64, 1, 1500]> var_321_cast_fp16 = einsum(equation = var_321_equation_0, values = (var_219_cast_fp16_10, var_290_cast_fp16))[name = tensor<string, []>("op_321_cast_fp16")];
            tensor<string, []> var_323_equation_0 = const()[name = tensor<string, []>("op_323_equation_0"), val = tensor<string, []>("bchk,bkhq->bchq")];
            tensor<fp16, [1, 64, 1, 1500]> var_323_cast_fp16 = einsum(equation = var_323_equation_0, values = (var_219_cast_fp16_11, var_291_cast_fp16))[name = tensor<string, []>("op_323_cast_fp16")];
            tensor<string, []> var_325_equation_0 = const()[name = tensor<string, []>("op_325_equation_0"), val = tensor<string, []>("bchk,bkhq->bchq")];
            tensor<fp16, [1, 64, 1, 1500]> var_325_cast_fp16 = einsum(equation = var_325_equation_0, values = (var_219_cast_fp16_12, var_292_cast_fp16))[name = tensor<string, []>("op_325_cast_fp16")];
            tensor<string, []> var_327_equation_0 = const()[name = tensor<string, []>("op_327_equation_0"), val = tensor<string, []>("bchk,bkhq->bchq")];
            tensor<fp16, [1, 64, 1, 1500]> var_327_cast_fp16 = einsum(equation = var_327_equation_0, values = (var_219_cast_fp16_13, var_293_cast_fp16))[name = tensor<string, []>("op_327_cast_fp16")];
            tensor<string, []> var_329_equation_0 = const()[name = tensor<string, []>("op_329_equation_0"), val = tensor<string, []>("bchk,bkhq->bchq")];
            tensor<fp16, [1, 64, 1, 1500]> var_329_cast_fp16 = einsum(equation = var_329_equation_0, values = (var_219_cast_fp16_14, var_294_cast_fp16))[name = tensor<string, []>("op_329_cast_fp16")];
            tensor<string, []> var_331_equation_0 = const()[name = tensor<string, []>("op_331_equation_0"), val = tensor<string, []>("bchk,bkhq->bchq")];
            tensor<fp16, [1, 64, 1, 1500]> var_331_cast_fp16 = einsum(equation = var_331_equation_0, values = (var_219_cast_fp16_15, var_295_cast_fp16))[name = tensor<string, []>("op_331_cast_fp16")];
            tensor<string, []> var_333_equation_0 = const()[name = tensor<string, []>("op_333_equation_0"), val = tensor<string, []>("bchk,bkhq->bchq")];
            tensor<fp16, [1, 64, 1, 1500]> var_333_cast_fp16 = einsum(equation = var_333_equation_0, values = (var_219_cast_fp16_16, var_296_cast_fp16))[name = tensor<string, []>("op_333_cast_fp16")];
            tensor<string, []> var_335_equation_0 = const()[name = tensor<string, []>("op_335_equation_0"), val = tensor<string, []>("bchk,bkhq->bchq")];
            tensor<fp16, [1, 64, 1, 1500]> var_335_cast_fp16 = einsum(equation = var_335_equation_0, values = (var_219_cast_fp16_17, var_297_cast_fp16))[name = tensor<string, []>("op_335_cast_fp16")];
            tensor<string, []> var_337_equation_0 = const()[name = tensor<string, []>("op_337_equation_0"), val = tensor<string, []>("bchk,bkhq->bchq")];
            tensor<fp16, [1, 64, 1, 1500]> var_337_cast_fp16 = einsum(equation = var_337_equation_0, values = (var_219_cast_fp16_18, var_298_cast_fp16))[name = tensor<string, []>("op_337_cast_fp16")];
            tensor<string, []> var_339_equation_0 = const()[name = tensor<string, []>("op_339_equation_0"), val = tensor<string, []>("bchk,bkhq->bchq")];
            tensor<fp16, [1, 64, 1, 1500]> var_339_cast_fp16 = einsum(equation = var_339_equation_0, values = (var_219_cast_fp16_19, var_299_cast_fp16))[name = tensor<string, []>("op_339_cast_fp16")];
            tensor<bool, []> input_5_interleave_0 = const()[name = tensor<string, []>("input_5_interleave_0"), val = tensor<bool, []>(false)];
            tensor<fp16, [1, 1280, 1, 1500]> input_5_cast_fp16 = concat(axis = var_124, interleave = input_5_interleave_0, values = (var_301_cast_fp16, var_303_cast_fp16, var_305_cast_fp16, var_307_cast_fp16, var_309_cast_fp16, var_311_cast_fp16, var_313_cast_fp16, var_315_cast_fp16, var_317_cast_fp16, var_319_cast_fp16, var_321_cast_fp16, var_323_cast_fp16, var_325_cast_fp16, var_327_cast_fp16, var_329_cast_fp16, var_331_cast_fp16, var_333_cast_fp16, var_335_cast_fp16, var_337_cast_fp16, var_339_cast_fp16))[name = tensor<string, []>("input_5_cast_fp16")];
            tensor<string, []> var_348_pad_type_0 = const()[name = tensor<string, []>("op_348_pad_type_0"), val = tensor<string, []>("valid")];
            tensor<int32, [2]> var_348_strides_0 = const()[name = tensor<string, []>("op_348_strides_0"), val = tensor<int32, [2]>([1, 1])];
            tensor<int32, [4]> var_348_pad_0 = const()[name = tensor<string, []>("op_348_pad_0"), val = tensor<int32, [4]>([0, 0, 0, 0])];
            tensor<int32, [2]> var_348_dilations_0 = const()[name = tensor<string, []>("op_348_dilations_0"), val = tensor<int32, [2]>([1, 1])];
            tensor<int32, []> var_348_groups_0 = const()[name = tensor<string, []>("op_348_groups_0"), val = tensor<int32, []>(1)];
            tensor<fp16, [1280, 1280, 1, 1]> blocks_0_attn_out_weight_to_fp16 = const()[name = tensor<string, []>("blocks_0_attn_out_weight_to_fp16"), val = tensor<fp16, [1280, 1280, 1, 1]>(BLOBFILE(path = tensor<string, []>("@model_path/weights/weight.bin"), offset = tensor<uint64, []>(24500032)))];
            tensor<fp16, [1280]> blocks_0_attn_out_bias_to_fp16 = const()[name = tensor<string, []>("blocks_0_attn_out_bias_to_fp16"), val = tensor<fp16, [1280]>(BLOBFILE(path = tensor<string, []>("@model_path/weights/weight.bin"), offset = tensor<uint64, []>(27776896)))];
            tensor<fp16, [1, 1280, 1, 1500]> var_348_cast_fp16 = conv(bias = blocks_0_attn_out_bias_to_fp16, dilations = var_348_dilations_0, groups = var_348_groups_0, pad = var_348_pad_0, pad_type = var_348_pad_type_0, strides = var_348_strides_0, weight = blocks_0_attn_out_weight_to_fp16, x = input_5_cast_fp16)[name = tensor<string, []>("op_348_cast_fp16")];
            tensor<fp16, [1, 1280, 1, 1500]> inputs_3_cast_fp16 = add(x = inputs_1_cast_fp16, y = var_348_cast_fp16)[name = tensor<string, []>("inputs_3_cast_fp16")];
            tensor<int32, [1]> input_7_axes_0 = const()[name = tensor<string, []>("input_7_axes_0"), val = tensor<int32, [1]>([1])];
            tensor<fp16, [1280]> input_7_gamma_0_to_fp16 = const()[name = tensor<string, []>("input_7_gamma_0_to_fp16"), val = tensor<fp16, [1280]>(BLOBFILE(path = tensor<string, []>("@model_path/weights/weight.bin"), offset = tensor<uint64, []>(27779520)))];
            tensor<fp16, [1280]> input_7_beta_0_to_fp16 = const()[name = tensor<string, []>("input_7_beta_0_to_fp16"), val = tensor<fp16, [1280]>(BLOBFILE(path = tensor<string, []>("@model_path/weights/weight.bin"), offset = tensor<uint64, []>(27782144)))];
            tensor<fp16, []> var_358_to_fp16 = const()[name = tensor<string, []>("op_358_to_fp16"), val = tensor<fp16, []>(0x1.5p-17)];
            tensor<fp16, [1, 1280, 1, 1500]> input_7_cast_fp16 = layer_norm(axes = input_7_axes_0, beta = input_7_beta_0_to_fp16, epsilon = var_358_to_fp16, gamma = input_7_gamma_0_to_fp16, x = inputs_3_cast_fp16)[name = tensor<string, []>("input_7_cast_fp16")];
            tensor<string, []> input_9_pad_type_0 = const()[name = tensor<string, []>("input_9_pad_type_0"), val = tensor<string, []>("valid")];
            tensor<int32, [2]> input_9_strides_0 = const()[name = tensor<string, []>("input_9_strides_0"), val = tensor<int32, [2]>([1, 1])];
            tensor<int32, [4]> input_9_pad_0 = const()[name = tensor<string, []>("input_9_pad_0"), val = tensor<int32, [4]>([0, 0, 0, 0])];
            tensor<int32, [2]> input_9_dilations_0 = const()[name = tensor<string, []>("input_9_dilations_0"), val = tensor<int32, [2]>([1, 1])];
            tensor<int32, []> input_9_groups_0 = const()[name = tensor<string, []>("input_9_groups_0"), val = tensor<int32, []>(1)];
            tensor<fp16, [5120, 1280, 1, 1]> blocks_0_mlp_0_weight_to_fp16 = const()[name = tensor<string, []>("blocks_0_mlp_0_weight_to_fp16"), val = tensor<fp16, [5120, 1280, 1, 1]>(BLOBFILE(path = tensor<string, []>("@model_path/weights/weight.bin"), offset = tensor<uint64, []>(27784768)))];
            tensor<fp16, [5120]> blocks_0_mlp_0_bias_to_fp16 = const()[name = tensor<string, []>("blocks_0_mlp_0_bias_to_fp16"), val = tensor<fp16, [5120]>(BLOBFILE(path = tensor<string, []>("@model_path/weights/weight.bin"), offset = tensor<uint64, []>(40892032)))];
            tensor<fp16, [1, 5120, 1, 1500]> input_9_cast_fp16 = conv(bias = blocks_0_mlp_0_bias_to_fp16, dilations = input_9_dilations_0, groups = input_9_groups_0, pad = input_9_pad_0, pad_type = input_9_pad_type_0, strides = input_9_strides_0, weight = blocks_0_mlp_0_weight_to_fp16, x = input_7_cast_fp16)[name = tensor<string, []>("input_9_cast_fp16")];
            tensor<string, []> input_11_mode_0 = const()[name = tensor<string, []>("input_11_mode_0"), val = tensor<string, []>("EXACT")];
            tensor<fp16, [1, 5120, 1, 1500]> input_11_cast_fp16 = gelu(mode = input_11_mode_0, x = input_9_cast_fp16)[name = tensor<string, []>("input_11_cast_fp16")];
            tensor<string, []> var_384_pad_type_0 = const()[name = tensor<string, []>("op_384_pad_type_0"), val = tensor<string, []>("valid")];
            tensor<int32, [2]> var_384_strides_0 = const()[name = tensor<string, []>("op_384_strides_0"), val = tensor<int32, [2]>([1, 1])];
            tensor<int32, [4]> var_384_pad_0 = const()[name = tensor<string, []>("op_384_pad_0"), val = tensor<int32, [4]>([0, 0, 0, 0])];
            tensor<int32, [2]> var_384_dilations_0 = const()[name = tensor<string, []>("op_384_dilations_0"), val = tensor<int32, [2]>([1, 1])];
            tensor<int32, []> var_384_groups_0 = const()[name = tensor<string, []>("op_384_groups_0"), val = tensor<int32, []>(1)];
            tensor<fp16, [1280, 5120, 1, 1]> blocks_0_mlp_2_weight_to_fp16 = const()[name = tensor<string, []>("blocks_0_mlp_2_weight_to_fp16"), val = tensor<fp16, [1280, 5120, 1, 1]>(BLOBFILE(path = tensor<string, []>("@model_path/weights/weight.bin"), offset = tensor<uint64, []>(40902336)))];
            tensor<fp16, [1280]> blocks_0_mlp_2_bias_to_fp16 = const()[name = tensor<string, []>("blocks_0_mlp_2_bias_to_fp16"), val = tensor<fp16, [1280]>(BLOBFILE(path = tensor<string, []>("@model_path/weights/weight.bin"), offset = tensor<uint64, []>(54009600)))];
            tensor<fp16, [1, 1280, 1, 1500]> var_384_cast_fp16 = conv(bias = blocks_0_mlp_2_bias_to_fp16, dilations = var_384_dilations_0, groups = var_384_groups_0, pad = var_384_pad_0, pad_type = var_384_pad_type_0, strides = var_384_strides_0, weight = blocks_0_mlp_2_weight_to_fp16, x = input_11_cast_fp16)[name = tensor<string, []>("op_384_cast_fp16")];
            tensor<fp16, [1, 1280, 1, 1500]> inputs_5_cast_fp16 = add(x = inputs_3_cast_fp16, y = var_384_cast_fp16)[name = tensor<string, []>("inputs_5_cast_fp16")];
            tensor<int32, []> var_393 = const()[name = tensor<string, []>("op_393"), val = tensor<int32, []>(1)];
            tensor<int32, [1]> input_13_axes_0 = const()[name = tensor<string, []>("input_13_axes_0"), val = tensor<int32, [1]>([1])];
            tensor<fp16, [1280]> input_13_gamma_0_to_fp16 = const()[name = tensor<string, []>("input_13_gamma_0_to_fp16"), val = tensor<fp16, [1280]>(BLOBFILE(path = tensor<string, []>("@model_path/weights/weight.bin"), offset = tensor<uint64, []>(54012224)))];
            tensor<fp16, [1280]> input_13_beta_0_to_fp16 = const()[name = tensor<string, []>("input_13_beta_0_to_fp16"), val = tensor<fp16, [1280]>(BLOBFILE(path = tensor<string, []>("@model_path/weights/weight.bin"), offset = tensor<uint64, []>(54014848)))];
            tensor<fp16, []> var_409_to_fp16 = const()[name = tensor<string, []>("op_409_to_fp16"), val = tensor<fp16, []>(0x1.5p-17)];
            tensor<fp16, [1, 1280, 1, 1500]> input_13_cast_fp16 = layer_norm(axes = input_13_axes_0, beta = input_13_beta_0_to_fp16, epsilon = var_409_to_fp16, gamma = input_13_gamma_0_to_fp16, x = inputs_5_cast_fp16)[name = tensor<string, []>("input_13_cast_fp16")];
            tensor<string, []> q_3_pad_type_0 = const()[name = tensor<string, []>("q_3_pad_type_0"), val = tensor<string, []>("valid")];
            tensor<int32, [2]> q_3_strides_0 = const()[name = tensor<string, []>("q_3_strides_0"), val = tensor<int32, [2]>([1, 1])];
            tensor<int32, [4]> q_3_pad_0 = const()[name = tensor<string, []>("q_3_pad_0"), val = tensor<int32, [4]>([0, 0, 0, 0])];
            tensor<int32, [2]> q_3_dilations_0 = const()[name = tensor<string, []>("q_3_dilations_0"), val = tensor<int32, [2]>([1, 1])];
            tensor<int32, []> q_3_groups_0 = const()[name = tensor<string, []>("q_3_groups_0"), val = tensor<int32, []>(1)];
            tensor<fp16, [1280, 1280, 1, 1]> var_444_weight_0_to_fp16 = const()[name = tensor<string, []>("op_444_weight_0_to_fp16"), val = tensor<fp16, [1280, 1280, 1, 1]>(BLOBFILE(path = tensor<string, []>("@model_path/weights/weight.bin"), offset = tensor<uint64, []>(54017472)))];
            tensor<fp16, [1280]> var_444_bias_0_to_fp16 = const()[name = tensor<string, []>("op_444_bias_0_to_fp16"), val = tensor<fp16, [1280]>(BLOBFILE(path = tensor<string, []>("@model_path/weights/weight.bin"), offset = tensor<uint64, []>(57294336)))];
            tensor<fp16, [1, 1280, 1, 1500]> var_444_cast_fp16 = conv(bias = var_444_bias_0_to_fp16, dilations = q_3_dilations_0, groups = q_3_groups_0, pad = q_3_pad_0, pad_type = q_3_pad_type_0, strides = q_3_strides_0, weight = var_444_weight_0_to_fp16, x = input_13_cast_fp16)[name = tensor<string, []>("op_444_cast_fp16")];
            tensor<string, []> k_3_pad_type_0 = const()[name = tensor<string, []>("k_3_pad_type_0"), val = tensor<string, []>("valid")];
            tensor<int32, [2]> k_3_strides_0 = const()[name = tensor<string, []>("k_3_strides_0"), val = tensor<int32, [2]>([1, 1])];
            tensor<int32, [4]> k_3_pad_0 = const()[name = tensor<string, []>("k_3_pad_0"), val = tensor<int32, [4]>([0, 0, 0, 0])];
            tensor<int32, [2]> k_3_dilations_0 = const()[name = tensor<string, []>("k_3_dilations_0"), val = tensor<int32, [2]>([1, 1])];
            tensor<int32, []> k_3_groups_0 = const()[name = tensor<string, []>("k_3_groups_0"), val = tensor<int32, []>(1)];
            tensor<fp16, [1280, 1280, 1, 1]> blocks_1_attn_key_weight_to_fp16 = const()[name = tensor<string, []>("blocks_1_attn_key_weight_to_fp16"), val = tensor<fp16, [1280, 1280, 1, 1]>(BLOBFILE(path = tensor<string, []>("@model_path/weights/weight.bin"), offset = tensor<uint64, []>(57296960)))];
            tensor<fp16, [1, 1280, 1, 1500]> k_3_cast_fp16 = conv(dilations = k_3_dilations_0, groups = k_3_groups_0, pad = k_3_pad_0, pad_type = k_3_pad_type_0, strides = k_3_strides_0, weight = blocks_1_attn_key_weight_to_fp16, x = input_13_cast_fp16)[name = tensor<string, []>("k_3_cast_fp16")];
            tensor<string, []> var_442_pad_type_0 = const()[name = tensor<string, []>("op_442_pad_type_0"), val = tensor<string, []>("valid")];
            tensor<int32, [2]> var_442_strides_0 = const()[name = tensor<string, []>("op_442_strides_0"), val = tensor<int32, [2]>([1, 1])];
            tensor<int32, [4]> var_442_pad_0 = const()[name = tensor<string, []>("op_442_pad_0"), val = tensor<int32, [4]>([0, 0, 0, 0])];
            tensor<int32, [2]> var_442_dilations_0 = const()[name = tensor<string, []>("op_442_dilations_0"), val = tensor<int32, [2]>([1, 1])];
            tensor<int32, []> var_442_groups_0 = const()[name = tensor<string, []>("op_442_groups_0"), val = tensor<int32, []>(1)];
            tensor<fp16, [1280, 1280, 1, 1]> blocks_1_attn_value_weight_to_fp16 = const()[name = tensor<string, []>("blocks_1_attn_value_weight_to_fp16"), val = tensor<fp16, [1280, 1280, 1, 1]>(BLOBFILE(path = tensor<string, []>("@model_path/weights/weight.bin"), offset = tensor<uint64, []>(60573824)))];
            tensor<fp16, [1280]> blocks_1_attn_value_bias_to_fp16 = const()[name = tensor<string, []>("blocks_1_attn_value_bias_to_fp16"), val = tensor<fp16, [1280]>(BLOBFILE(path = tensor<string, []>("@model_path/weights/weight.bin"), offset = tensor<uint64, []>(63850688)))];
            tensor<fp16, [1, 1280, 1, 1500]> var_442_cast_fp16 = conv(bias = blocks_1_attn_value_bias_to_fp16, dilations = var_442_dilations_0, groups = var_442_groups_0, pad = var_442_pad_0, pad_type = var_442_pad_type_0, strides = var_442_strides_0, weight = blocks_1_attn_value_weight_to_fp16, x = input_13_cast_fp16)[name = tensor<string, []>("op_442_cast_fp16")];
            tensor<int32, [20]> tile_3 = const()[name = tensor<string, []>("tile_3"), val = tensor<int32, [20]>([64, 64, 64, 64, 64, 64, 64, 64, 64, 64, 64, 64, 64, 64, 64, 64, 64, 64, 64, 64])];
            tensor<int32, []> var_445_axis_0 = const()[name = tensor<string, []>("op_445_axis_0"), val = tensor<int32, []>(1)];
            tensor<fp16, [1, 64, 1, 1500]> var_445_cast_fp16_0, tensor<fp16, [1, 64, 1, 1500]> var_445_cast_fp16_1, tensor<fp16, [1, 64, 1, 1500]> var_445_cast_fp16_2, tensor<fp16, [1, 64, 1, 1500]> var_445_cast_fp16_3, tensor<fp16, [1, 64, 1, 1500]> var_445_cast_fp16_4, tensor<fp16, [1, 64, 1, 1500]> var_445_cast_fp16_5, tensor<fp16, [1, 64, 1, 1500]> var_445_cast_fp16_6, tensor<fp16, [1, 64, 1, 1500]> var_445_cast_fp16_7, tensor<fp16, [1, 64, 1, 1500]> var_445_cast_fp16_8, tensor<fp16, [1, 64, 1, 1500]> var_445_cast_fp16_9, tensor<fp16, [1, 64, 1, 1500]> var_445_cast_fp16_10, tensor<fp16, [1, 64, 1, 1500]> var_445_cast_fp16_11, tensor<fp16, [1, 64, 1, 1500]> var_445_cast_fp16_12, tensor<fp16, [1, 64, 1, 1500]> var_445_cast_fp16_13, tensor<fp16, [1, 64, 1, 1500]> var_445_cast_fp16_14, tensor<fp16, [1, 64, 1, 1500]> var_445_cast_fp16_15, tensor<fp16, [1, 64, 1, 1500]> var_445_cast_fp16_16, tensor<fp16, [1, 64, 1, 1500]> var_445_cast_fp16_17, tensor<fp16, [1, 64, 1, 1500]> var_445_cast_fp16_18, tensor<fp16, [1, 64, 1, 1500]> var_445_cast_fp16_19 = split(axis = var_445_axis_0, split_sizes = tile_3, x = var_444_cast_fp16)[name = tensor<string, []>("op_445_cast_fp16")];
            tensor<int32, [4]> var_466_perm_0 = const()[name = tensor<string, []>("op_466_perm_0"), val = tensor<int32, [4]>([0, 3, 2, 1])];
            tensor<int32, [20]> tile_4 = const()[name = tensor<string, []>("tile_4"), val = tensor<int32, [20]>([64, 64, 64, 64, 64, 64, 64, 64, 64, 64, 64, 64, 64, 64, 64, 64, 64, 64, 64, 64])];
            tensor<int32, []> var_467_axis_0 = const()[name = tensor<string, []>("op_467_axis_0"), val = tensor<int32, []>(3)];
            tensor<fp16, [1, 1500, 1, 1280]> var_466_cast_fp16 = transpose(perm = var_466_perm_0, x = k_3_cast_fp16)[name = tensor<string, []>("transpose_31")];
            tensor<fp16, [1, 1500, 1, 64]> var_467_cast_fp16_0, tensor<fp16, [1, 1500, 1, 64]> var_467_cast_fp16_1, tensor<fp16, [1, 1500, 1, 64]> var_467_cast_fp16_2, tensor<fp16, [1, 1500, 1, 64]> var_467_cast_fp16_3, tensor<fp16, [1, 1500, 1, 64]> var_467_cast_fp16_4, tensor<fp16, [1, 1500, 1, 64]> var_467_cast_fp16_5, tensor<fp16, [1, 1500, 1, 64]> var_467_cast_fp16_6, tensor<fp16, [1, 1500, 1, 64]> var_467_cast_fp16_7, tensor<fp16, [1, 1500, 1, 64]> var_467_cast_fp16_8, tensor<fp16, [1, 1500, 1, 64]> var_467_cast_fp16_9, tensor<fp16, [1, 1500, 1, 64]> var_467_cast_fp16_10, tensor<fp16, [1, 1500, 1, 64]> var_467_cast_fp16_11, tensor<fp16, [1, 1500, 1, 64]> var_467_cast_fp16_12, tensor<fp16, [1, 1500, 1, 64]> var_467_cast_fp16_13, tensor<fp16, [1, 1500, 1, 64]> var_467_cast_fp16_14, tensor<fp16, [1, 1500, 1, 64]> var_467_cast_fp16_15, tensor<fp16, [1, 1500, 1, 64]> var_467_cast_fp16_16, tensor<fp16, [1, 1500, 1, 64]> var_467_cast_fp16_17, tensor<fp16, [1, 1500, 1, 64]> var_467_cast_fp16_18, tensor<fp16, [1, 1500, 1, 64]> var_467_cast_fp16_19 = split(axis = var_467_axis_0, split_sizes = tile_4, x = var_466_cast_fp16)[name = tensor<string, []>("op_467_cast_fp16")];
            tensor<int32, [20]> tile_5 = const()[name = tensor<string, []>("tile_5"), val = tensor<int32, [20]>([64, 64, 64, 64, 64, 64, 64, 64, 64, 64, 64, 64, 64, 64, 64, 64, 64, 64, 64, 64])];
            tensor<int32, []> var_488_axis_0 = const()[name = tensor<string, []>("op_488_axis_0"), val = tensor<int32, []>(1)];
            tensor<fp16, [1, 64, 1, 1500]> var_488_cast_fp16_0, tensor<fp16, [1, 64, 1, 1500]> var_488_cast_fp16_1, tensor<fp16, [1, 64, 1, 1500]> var_488_cast_fp16_2, tensor<fp16, [1, 64, 1, 1500]> var_488_cast_fp16_3, tensor<fp16, [1, 64, 1, 1500]> var_488_cast_fp16_4, tensor<fp16, [1, 64, 1, 1500]> var_488_cast_fp16_5, tensor<fp16, [1, 64, 1, 1500]> var_488_cast_fp16_6, tensor<fp16, [1, 64, 1, 1500]> var_488_cast_fp16_7, tensor<fp16, [1, 64, 1, 1500]> var_488_cast_fp16_8, tensor<fp16, [1, 64, 1, 1500]> var_488_cast_fp16_9, tensor<fp16, [1, 64, 1, 1500]> var_488_cast_fp16_10, tensor<fp16, [1, 64, 1, 1500]> var_488_cast_fp16_11, tensor<fp16, [1, 64, 1, 1500]> var_488_cast_fp16_12, tensor<fp16, [1, 64, 1, 1500]> var_488_cast_fp16_13, tensor<fp16, [1, 64, 1, 1500]> var_488_cast_fp16_14, tensor<fp16, [1, 64, 1, 1500]> var_488_cast_fp16_15, tensor<fp16, [1, 64, 1, 1500]> var_488_cast_fp16_16, tensor<fp16, [1, 64, 1, 1500]> var_488_cast_fp16_17, tensor<fp16, [1, 64, 1, 1500]> var_488_cast_fp16_18, tensor<fp16, [1, 64, 1, 1500]> var_488_cast_fp16_19 = split(axis = var_488_axis_0, split_sizes = tile_5, x = var_442_cast_fp16)[name = tensor<string, []>("op_488_cast_fp16")];
            tensor<string, []> aw_41_equation_0 = const()[name = tensor<string, []>("aw_41_equation_0"), val = tensor<string, []>("bkhc,bchq->bkhq")];
            tensor<fp16, [1, 1500, 1, 1500]> aw_41_cast_fp16 = einsum(equation = aw_41_equation_0, values = (var_467_cast_fp16_0, var_445_cast_fp16_0))[name = tensor<string, []>("aw_41_cast_fp16")];
            tensor<string, []> aw_43_equation_0 = const()[name = tensor<string, []>("aw_43_equation_0"), val = tensor<string, []>("bkhc,bchq->bkhq")];
            tensor<fp16, [1, 1500, 1, 1500]> aw_43_cast_fp16 = einsum(equation = aw_43_equation_0, values = (var_467_cast_fp16_1, var_445_cast_fp16_1))[name = tensor<string, []>("aw_43_cast_fp16")];
            tensor<string, []> aw_45_equation_0 = const()[name = tensor<string, []>("aw_45_equation_0"), val = tensor<string, []>("bkhc,bchq->bkhq")];
            tensor<fp16, [1, 1500, 1, 1500]> aw_45_cast_fp16 = einsum(equation = aw_45_equation_0, values = (var_467_cast_fp16_2, var_445_cast_fp16_2))[name = tensor<string, []>("aw_45_cast_fp16")];
            tensor<string, []> aw_47_equation_0 = const()[name = tensor<string, []>("aw_47_equation_0"), val = tensor<string, []>("bkhc,bchq->bkhq")];
            tensor<fp16, [1, 1500, 1, 1500]> aw_47_cast_fp16 = einsum(equation = aw_47_equation_0, values = (var_467_cast_fp16_3, var_445_cast_fp16_3))[name = tensor<string, []>("aw_47_cast_fp16")];
            tensor<string, []> aw_49_equation_0 = const()[name = tensor<string, []>("aw_49_equation_0"), val = tensor<string, []>("bkhc,bchq->bkhq")];
            tensor<fp16, [1, 1500, 1, 1500]> aw_49_cast_fp16 = einsum(equation = aw_49_equation_0, values = (var_467_cast_fp16_4, var_445_cast_fp16_4))[name = tensor<string, []>("aw_49_cast_fp16")];
            tensor<string, []> aw_51_equation_0 = const()[name = tensor<string, []>("aw_51_equation_0"), val = tensor<string, []>("bkhc,bchq->bkhq")];
            tensor<fp16, [1, 1500, 1, 1500]> aw_51_cast_fp16 = einsum(equation = aw_51_equation_0, values = (var_467_cast_fp16_5, var_445_cast_fp16_5))[name = tensor<string, []>("aw_51_cast_fp16")];
            tensor<string, []> aw_53_equation_0 = const()[name = tensor<string, []>("aw_53_equation_0"), val = tensor<string, []>("bkhc,bchq->bkhq")];
            tensor<fp16, [1, 1500, 1, 1500]> aw_53_cast_fp16 = einsum(equation = aw_53_equation_0, values = (var_467_cast_fp16_6, var_445_cast_fp16_6))[name = tensor<string, []>("aw_53_cast_fp16")];
            tensor<string, []> aw_55_equation_0 = const()[name = tensor<string, []>("aw_55_equation_0"), val = tensor<string, []>("bkhc,bchq->bkhq")];
            tensor<fp16, [1, 1500, 1, 1500]> aw_55_cast_fp16 = einsum(equation = aw_55_equation_0, values = (var_467_cast_fp16_7, var_445_cast_fp16_7))[name = tensor<string, []>("aw_55_cast_fp16")];
            tensor<string, []> aw_57_equation_0 = const()[name = tensor<string, []>("aw_57_equation_0"), val = tensor<string, []>("bkhc,bchq->bkhq")];
            tensor<fp16, [1, 1500, 1, 1500]> aw_57_cast_fp16 = einsum(equation = aw_57_equation_0, values = (var_467_cast_fp16_8, var_445_cast_fp16_8))[name = tensor<string, []>("aw_57_cast_fp16")];
            tensor<string, []> aw_59_equation_0 = const()[name = tensor<string, []>("aw_59_equation_0"), val = tensor<string, []>("bkhc,bchq->bkhq")];
            tensor<fp16, [1, 1500, 1, 1500]> aw_59_cast_fp16 = einsum(equation = aw_59_equation_0, values = (var_467_cast_fp16_9, var_445_cast_fp16_9))[name = tensor<string, []>("aw_59_cast_fp16")];
            tensor<string, []> aw_61_equation_0 = const()[name = tensor<string, []>("aw_61_equation_0"), val = tensor<string, []>("bkhc,bchq->bkhq")];
            tensor<fp16, [1, 1500, 1, 1500]> aw_61_cast_fp16 = einsum(equation = aw_61_equation_0, values = (var_467_cast_fp16_10, var_445_cast_fp16_10))[name = tensor<string, []>("aw_61_cast_fp16")];
            tensor<string, []> aw_63_equation_0 = const()[name = tensor<string, []>("aw_63_equation_0"), val = tensor<string, []>("bkhc,bchq->bkhq")];
            tensor<fp16, [1, 1500, 1, 1500]> aw_63_cast_fp16 = einsum(equation = aw_63_equation_0, values = (var_467_cast_fp16_11, var_445_cast_fp16_11))[name = tensor<string, []>("aw_63_cast_fp16")];
            tensor<string, []> aw_65_equation_0 = const()[name = tensor<string, []>("aw_65_equation_0"), val = tensor<string, []>("bkhc,bchq->bkhq")];
            tensor<fp16, [1, 1500, 1, 1500]> aw_65_cast_fp16 = einsum(equation = aw_65_equation_0, values = (var_467_cast_fp16_12, var_445_cast_fp16_12))[name = tensor<string, []>("aw_65_cast_fp16")];
            tensor<string, []> aw_67_equation_0 = const()[name = tensor<string, []>("aw_67_equation_0"), val = tensor<string, []>("bkhc,bchq->bkhq")];
            tensor<fp16, [1, 1500, 1, 1500]> aw_67_cast_fp16 = einsum(equation = aw_67_equation_0, values = (var_467_cast_fp16_13, var_445_cast_fp16_13))[name = tensor<string, []>("aw_67_cast_fp16")];
            tensor<string, []> aw_69_equation_0 = const()[name = tensor<string, []>("aw_69_equation_0"), val = tensor<string, []>("bkhc,bchq->bkhq")];
            tensor<fp16, [1, 1500, 1, 1500]> aw_69_cast_fp16 = einsum(equation = aw_69_equation_0, values = (var_467_cast_fp16_14, var_445_cast_fp16_14))[name = tensor<string, []>("aw_69_cast_fp16")];
            tensor<string, []> aw_71_equation_0 = const()[name = tensor<string, []>("aw_71_equation_0"), val = tensor<string, []>("bkhc,bchq->bkhq")];
            tensor<fp16, [1, 1500, 1, 1500]> aw_71_cast_fp16 = einsum(equation = aw_71_equation_0, values = (var_467_cast_fp16_15, var_445_cast_fp16_15))[name = tensor<string, []>("aw_71_cast_fp16")];
            tensor<string, []> aw_73_equation_0 = const()[name = tensor<string, []>("aw_73_equation_0"), val = tensor<string, []>("bkhc,bchq->bkhq")];
            tensor<fp16, [1, 1500, 1, 1500]> aw_73_cast_fp16 = einsum(equation = aw_73_equation_0, values = (var_467_cast_fp16_16, var_445_cast_fp16_16))[name = tensor<string, []>("aw_73_cast_fp16")];
            tensor<string, []> aw_75_equation_0 = const()[name = tensor<string, []>("aw_75_equation_0"), val = tensor<string, []>("bkhc,bchq->bkhq")];
            tensor<fp16, [1, 1500, 1, 1500]> aw_75_cast_fp16 = einsum(equation = aw_75_equation_0, values = (var_467_cast_fp16_17, var_445_cast_fp16_17))[name = tensor<string, []>("aw_75_cast_fp16")];
            tensor<string, []> aw_77_equation_0 = const()[name = tensor<string, []>("aw_77_equation_0"), val = tensor<string, []>("bkhc,bchq->bkhq")];
            tensor<fp16, [1, 1500, 1, 1500]> aw_77_cast_fp16 = einsum(equation = aw_77_equation_0, values = (var_467_cast_fp16_18, var_445_cast_fp16_18))[name = tensor<string, []>("aw_77_cast_fp16")];
            tensor<string, []> aw_79_equation_0 = const()[name = tensor<string, []>("aw_79_equation_0"), val = tensor<string, []>("bkhc,bchq->bkhq")];
            tensor<fp16, [1, 1500, 1, 1500]> aw_79_cast_fp16 = einsum(equation = aw_79_equation_0, values = (var_467_cast_fp16_19, var_445_cast_fp16_19))[name = tensor<string, []>("aw_79_cast_fp16")];
            tensor<fp16, [1, 1500, 1, 1500]> var_549_cast_fp16 = softmax(axis = var_393, x = aw_41_cast_fp16)[name = tensor<string, []>("op_549_cast_fp16")];
            tensor<fp16, [1, 1500, 1, 1500]> var_550_cast_fp16 = softmax(axis = var_393, x = aw_43_cast_fp16)[name = tensor<string, []>("op_550_cast_fp16")];
            tensor<fp16, [1, 1500, 1, 1500]> var_551_cast_fp16 = softmax(axis = var_393, x = aw_45_cast_fp16)[name = tensor<string, []>("op_551_cast_fp16")];
            tensor<fp16, [1, 1500, 1, 1500]> var_552_cast_fp16 = softmax(axis = var_393, x = aw_47_cast_fp16)[name = tensor<string, []>("op_552_cast_fp16")];
            tensor<fp16, [1, 1500, 1, 1500]> var_553_cast_fp16 = softmax(axis = var_393, x = aw_49_cast_fp16)[name = tensor<string, []>("op_553_cast_fp16")];
            tensor<fp16, [1, 1500, 1, 1500]> var_554_cast_fp16 = softmax(axis = var_393, x = aw_51_cast_fp16)[name = tensor<string, []>("op_554_cast_fp16")];
            tensor<fp16, [1, 1500, 1, 1500]> var_555_cast_fp16 = softmax(axis = var_393, x = aw_53_cast_fp16)[name = tensor<string, []>("op_555_cast_fp16")];
            tensor<fp16, [1, 1500, 1, 1500]> var_556_cast_fp16 = softmax(axis = var_393, x = aw_55_cast_fp16)[name = tensor<string, []>("op_556_cast_fp16")];
            tensor<fp16, [1, 1500, 1, 1500]> var_557_cast_fp16 = softmax(axis = var_393, x = aw_57_cast_fp16)[name = tensor<string, []>("op_557_cast_fp16")];
            tensor<fp16, [1, 1500, 1, 1500]> var_558_cast_fp16 = softmax(axis = var_393, x = aw_59_cast_fp16)[name = tensor<string, []>("op_558_cast_fp16")];
            tensor<fp16, [1, 1500, 1, 1500]> var_559_cast_fp16 = softmax(axis = var_393, x = aw_61_cast_fp16)[name = tensor<string, []>("op_559_cast_fp16")];
            tensor<fp16, [1, 1500, 1, 1500]> var_560_cast_fp16 = softmax(axis = var_393, x = aw_63_cast_fp16)[name = tensor<string, []>("op_560_cast_fp16")];
            tensor<fp16, [1, 1500, 1, 1500]> var_561_cast_fp16 = softmax(axis = var_393, x = aw_65_cast_fp16)[name = tensor<string, []>("op_561_cast_fp16")];
            tensor<fp16, [1, 1500, 1, 1500]> var_562_cast_fp16 = softmax(axis = var_393, x = aw_67_cast_fp16)[name = tensor<string, []>("op_562_cast_fp16")];
            tensor<fp16, [1, 1500, 1, 1500]> var_563_cast_fp16 = softmax(axis = var_393, x = aw_69_cast_fp16)[name = tensor<string, []>("op_563_cast_fp16")];
            tensor<fp16, [1, 1500, 1, 1500]> var_564_cast_fp16 = softmax(axis = var_393, x = aw_71_cast_fp16)[name = tensor<string, []>("op_564_cast_fp16")];
            tensor<fp16, [1, 1500, 1, 1500]> var_565_cast_fp16 = softmax(axis = var_393, x = aw_73_cast_fp16)[name = tensor<string, []>("op_565_cast_fp16")];
            tensor<fp16, [1, 1500, 1, 1500]> var_566_cast_fp16 = softmax(axis = var_393, x = aw_75_cast_fp16)[name = tensor<string, []>("op_566_cast_fp16")];
            tensor<fp16, [1, 1500, 1, 1500]> var_567_cast_fp16 = softmax(axis = var_393, x = aw_77_cast_fp16)[name = tensor<string, []>("op_567_cast_fp16")];
            tensor<fp16, [1, 1500, 1, 1500]> var_568_cast_fp16 = softmax(axis = var_393, x = aw_79_cast_fp16)[name = tensor<string, []>("op_568_cast_fp16")];
            tensor<string, []> var_570_equation_0 = const()[name = tensor<string, []>("op_570_equation_0"), val = tensor<string, []>("bchk,bkhq->bchq")];
            tensor<fp16, [1, 64, 1, 1500]> var_570_cast_fp16 = einsum(equation = var_570_equation_0, values = (var_488_cast_fp16_0, var_549_cast_fp16))[name = tensor<string, []>("op_570_cast_fp16")];
            tensor<string, []> var_572_equation_0 = const()[name = tensor<string, []>("op_572_equation_0"), val = tensor<string, []>("bchk,bkhq->bchq")];
            tensor<fp16, [1, 64, 1, 1500]> var_572_cast_fp16 = einsum(equation = var_572_equation_0, values = (var_488_cast_fp16_1, var_550_cast_fp16))[name = tensor<string, []>("op_572_cast_fp16")];
            tensor<string, []> var_574_equation_0 = const()[name = tensor<string, []>("op_574_equation_0"), val = tensor<string, []>("bchk,bkhq->bchq")];
            tensor<fp16, [1, 64, 1, 1500]> var_574_cast_fp16 = einsum(equation = var_574_equation_0, values = (var_488_cast_fp16_2, var_551_cast_fp16))[name = tensor<string, []>("op_574_cast_fp16")];
            tensor<string, []> var_576_equation_0 = const()[name = tensor<string, []>("op_576_equation_0"), val = tensor<string, []>("bchk,bkhq->bchq")];
            tensor<fp16, [1, 64, 1, 1500]> var_576_cast_fp16 = einsum(equation = var_576_equation_0, values = (var_488_cast_fp16_3, var_552_cast_fp16))[name = tensor<string, []>("op_576_cast_fp16")];
            tensor<string, []> var_578_equation_0 = const()[name = tensor<string, []>("op_578_equation_0"), val = tensor<string, []>("bchk,bkhq->bchq")];
            tensor<fp16, [1, 64, 1, 1500]> var_578_cast_fp16 = einsum(equation = var_578_equation_0, values = (var_488_cast_fp16_4, var_553_cast_fp16))[name = tensor<string, []>("op_578_cast_fp16")];
            tensor<string, []> var_580_equation_0 = const()[name = tensor<string, []>("op_580_equation_0"), val = tensor<string, []>("bchk,bkhq->bchq")];
            tensor<fp16, [1, 64, 1, 1500]> var_580_cast_fp16 = einsum(equation = var_580_equation_0, values = (var_488_cast_fp16_5, var_554_cast_fp16))[name = tensor<string, []>("op_580_cast_fp16")];
            tensor<string, []> var_582_equation_0 = const()[name = tensor<string, []>("op_582_equation_0"), val = tensor<string, []>("bchk,bkhq->bchq")];
            tensor<fp16, [1, 64, 1, 1500]> var_582_cast_fp16 = einsum(equation = var_582_equation_0, values = (var_488_cast_fp16_6, var_555_cast_fp16))[name = tensor<string, []>("op_582_cast_fp16")];
            tensor<string, []> var_584_equation_0 = const()[name = tensor<string, []>("op_584_equation_0"), val = tensor<string, []>("bchk,bkhq->bchq")];
            tensor<fp16, [1, 64, 1, 1500]> var_584_cast_fp16 = einsum(equation = var_584_equation_0, values = (var_488_cast_fp16_7, var_556_cast_fp16))[name = tensor<string, []>("op_584_cast_fp16")];
            tensor<string, []> var_586_equation_0 = const()[name = tensor<string, []>("op_586_equation_0"), val = tensor<string, []>("bchk,bkhq->bchq")];
            tensor<fp16, [1, 64, 1, 1500]> var_586_cast_fp16 = einsum(equation = var_586_equation_0, values = (var_488_cast_fp16_8, var_557_cast_fp16))[name = tensor<string, []>("op_586_cast_fp16")];
            tensor<string, []> var_588_equation_0 = const()[name = tensor<string, []>("op_588_equation_0"), val = tensor<string, []>("bchk,bkhq->bchq")];
            tensor<fp16, [1, 64, 1, 1500]> var_588_cast_fp16 = einsum(equation = var_588_equation_0, values = (var_488_cast_fp16_9, var_558_cast_fp16))[name = tensor<string, []>("op_588_cast_fp16")];
            tensor<string, []> var_590_equation_0 = const()[name = tensor<string, []>("op_590_equation_0"), val = tensor<string, []>("bchk,bkhq->bchq")];
            tensor<fp16, [1, 64, 1, 1500]> var_590_cast_fp16 = einsum(equation = var_590_equation_0, values = (var_488_cast_fp16_10, var_559_cast_fp16))[name = tensor<string, []>("op_590_cast_fp16")];
            tensor<string, []> var_592_equation_0 = const()[name = tensor<string, []>("op_592_equation_0"), val = tensor<string, []>("bchk,bkhq->bchq")];
            tensor<fp16, [1, 64, 1, 1500]> var_592_cast_fp16 = einsum(equation = var_592_equation_0, values = (var_488_cast_fp16_11, var_560_cast_fp16))[name = tensor<string, []>("op_592_cast_fp16")];
            tensor<string, []> var_594_equation_0 = const()[name = tensor<string, []>("op_594_equation_0"), val = tensor<string, []>("bchk,bkhq->bchq")];
            tensor<fp16, [1, 64, 1, 1500]> var_594_cast_fp16 = einsum(equation = var_594_equation_0, values = (var_488_cast_fp16_12, var_561_cast_fp16))[name = tensor<string, []>("op_594_cast_fp16")];
            tensor<string, []> var_596_equation_0 = const()[name = tensor<string, []>("op_596_equation_0"), val = tensor<string, []>("bchk,bkhq->bchq")];
            tensor<fp16, [1, 64, 1, 1500]> var_596_cast_fp16 = einsum(equation = var_596_equation_0, values = (var_488_cast_fp16_13, var_562_cast_fp16))[name = tensor<string, []>("op_596_cast_fp16")];
            tensor<string, []> var_598_equation_0 = const()[name = tensor<string, []>("op_598_equation_0"), val = tensor<string, []>("bchk,bkhq->bchq")];
            tensor<fp16, [1, 64, 1, 1500]> var_598_cast_fp16 = einsum(equation = var_598_equation_0, values = (var_488_cast_fp16_14, var_563_cast_fp16))[name = tensor<string, []>("op_598_cast_fp16")];
            tensor<string, []> var_600_equation_0 = const()[name = tensor<string, []>("op_600_equation_0"), val = tensor<string, []>("bchk,bkhq->bchq")];
            tensor<fp16, [1, 64, 1, 1500]> var_600_cast_fp16 = einsum(equation = var_600_equation_0, values = (var_488_cast_fp16_15, var_564_cast_fp16))[name = tensor<string, []>("op_600_cast_fp16")];
            tensor<string, []> var_602_equation_0 = const()[name = tensor<string, []>("op_602_equation_0"), val = tensor<string, []>("bchk,bkhq->bchq")];
            tensor<fp16, [1, 64, 1, 1500]> var_602_cast_fp16 = einsum(equation = var_602_equation_0, values = (var_488_cast_fp16_16, var_565_cast_fp16))[name = tensor<string, []>("op_602_cast_fp16")];
            tensor<string, []> var_604_equation_0 = const()[name = tensor<string, []>("op_604_equation_0"), val = tensor<string, []>("bchk,bkhq->bchq")];
            tensor<fp16, [1, 64, 1, 1500]> var_604_cast_fp16 = einsum(equation = var_604_equation_0, values = (var_488_cast_fp16_17, var_566_cast_fp16))[name = tensor<string, []>("op_604_cast_fp16")];
            tensor<string, []> var_606_equation_0 = const()[name = tensor<string, []>("op_606_equation_0"), val = tensor<string, []>("bchk,bkhq->bchq")];
            tensor<fp16, [1, 64, 1, 1500]> var_606_cast_fp16 = einsum(equation = var_606_equation_0, values = (var_488_cast_fp16_18, var_567_cast_fp16))[name = tensor<string, []>("op_606_cast_fp16")];
            tensor<string, []> var_608_equation_0 = const()[name = tensor<string, []>("op_608_equation_0"), val = tensor<string, []>("bchk,bkhq->bchq")];
            tensor<fp16, [1, 64, 1, 1500]> var_608_cast_fp16 = einsum(equation = var_608_equation_0, values = (var_488_cast_fp16_19, var_568_cast_fp16))[name = tensor<string, []>("op_608_cast_fp16")];
            tensor<bool, []> input_15_interleave_0 = const()[name = tensor<string, []>("input_15_interleave_0"), val = tensor<bool, []>(false)];
            tensor<fp16, [1, 1280, 1, 1500]> input_15_cast_fp16 = concat(axis = var_393, interleave = input_15_interleave_0, values = (var_570_cast_fp16, var_572_cast_fp16, var_574_cast_fp16, var_576_cast_fp16, var_578_cast_fp16, var_580_cast_fp16, var_582_cast_fp16, var_584_cast_fp16, var_586_cast_fp16, var_588_cast_fp16, var_590_cast_fp16, var_592_cast_fp16, var_594_cast_fp16, var_596_cast_fp16, var_598_cast_fp16, var_600_cast_fp16, var_602_cast_fp16, var_604_cast_fp16, var_606_cast_fp16, var_608_cast_fp16))[name = tensor<string, []>("input_15_cast_fp16")];
            tensor<string, []> var_617_pad_type_0 = const()[name = tensor<string, []>("op_617_pad_type_0"), val = tensor<string, []>("valid")];
            tensor<int32, [2]> var_617_strides_0 = const()[name = tensor<string, []>("op_617_strides_0"), val = tensor<int32, [2]>([1, 1])];
            tensor<int32, [4]> var_617_pad_0 = const()[name = tensor<string, []>("op_617_pad_0"), val = tensor<int32, [4]>([0, 0, 0, 0])];
            tensor<int32, [2]> var_617_dilations_0 = const()[name = tensor<string, []>("op_617_dilations_0"), val = tensor<int32, [2]>([1, 1])];
            tensor<int32, []> var_617_groups_0 = const()[name = tensor<string, []>("op_617_groups_0"), val = tensor<int32, []>(1)];
            tensor<fp16, [1280, 1280, 1, 1]> blocks_1_attn_out_weight_to_fp16 = const()[name = tensor<string, []>("blocks_1_attn_out_weight_to_fp16"), val = tensor<fp16, [1280, 1280, 1, 1]>(BLOBFILE(path = tensor<string, []>("@model_path/weights/weight.bin"), offset = tensor<uint64, []>(63853312)))];
            tensor<fp16, [1280]> blocks_1_attn_out_bias_to_fp16 = const()[name = tensor<string, []>("blocks_1_attn_out_bias_to_fp16"), val = tensor<fp16, [1280]>(BLOBFILE(path = tensor<string, []>("@model_path/weights/weight.bin"), offset = tensor<uint64, []>(67130176)))];
            tensor<fp16, [1, 1280, 1, 1500]> var_617_cast_fp16 = conv(bias = blocks_1_attn_out_bias_to_fp16, dilations = var_617_dilations_0, groups = var_617_groups_0, pad = var_617_pad_0, pad_type = var_617_pad_type_0, strides = var_617_strides_0, weight = blocks_1_attn_out_weight_to_fp16, x = input_15_cast_fp16)[name = tensor<string, []>("op_617_cast_fp16")];
            tensor<fp16, [1, 1280, 1, 1500]> inputs_7_cast_fp16 = add(x = inputs_5_cast_fp16, y = var_617_cast_fp16)[name = tensor<string, []>("inputs_7_cast_fp16")];
            tensor<int32, [1]> input_17_axes_0 = const()[name = tensor<string, []>("input_17_axes_0"), val = tensor<int32, [1]>([1])];
            tensor<fp16, [1280]> input_17_gamma_0_to_fp16 = const()[name = tensor<string, []>("input_17_gamma_0_to_fp16"), val = tensor<fp16, [1280]>(BLOBFILE(path = tensor<string, []>("@model_path/weights/weight.bin"), offset = tensor<uint64, []>(67132800)))];
            tensor<fp16, [1280]> input_17_beta_0_to_fp16 = const()[name = tensor<string, []>("input_17_beta_0_to_fp16"), val = tensor<fp16, [1280]>(BLOBFILE(path = tensor<string, []>("@model_path/weights/weight.bin"), offset = tensor<uint64, []>(67135424)))];
            tensor<fp16, []> var_627_to_fp16 = const()[name = tensor<string, []>("op_627_to_fp16"), val = tensor<fp16, []>(0x1.5p-17)];
            tensor<fp16, [1, 1280, 1, 1500]> input_17_cast_fp16 = layer_norm(axes = input_17_axes_0, beta = input_17_beta_0_to_fp16, epsilon = var_627_to_fp16, gamma = input_17_gamma_0_to_fp16, x = inputs_7_cast_fp16)[name = tensor<string, []>("input_17_cast_fp16")];
            tensor<string, []> input_19_pad_type_0 = const()[name = tensor<string, []>("input_19_pad_type_0"), val = tensor<string, []>("valid")];
            tensor<int32, [2]> input_19_strides_0 = const()[name = tensor<string, []>("input_19_strides_0"), val = tensor<int32, [2]>([1, 1])];
            tensor<int32, [4]> input_19_pad_0 = const()[name = tensor<string, []>("input_19_pad_0"), val = tensor<int32, [4]>([0, 0, 0, 0])];
            tensor<int32, [2]> input_19_dilations_0 = const()[name = tensor<string, []>("input_19_dilations_0"), val = tensor<int32, [2]>([1, 1])];
            tensor<int32, []> input_19_groups_0 = const()[name = tensor<string, []>("input_19_groups_0"), val = tensor<int32, []>(1)];
            tensor<fp16, [5120, 1280, 1, 1]> blocks_1_mlp_0_weight_to_fp16 = const()[name = tensor<string, []>("blocks_1_mlp_0_weight_to_fp16"), val = tensor<fp16, [5120, 1280, 1, 1]>(BLOBFILE(path = tensor<string, []>("@model_path/weights/weight.bin"), offset = tensor<uint64, []>(67138048)))];
            tensor<fp16, [5120]> blocks_1_mlp_0_bias_to_fp16 = const()[name = tensor<string, []>("blocks_1_mlp_0_bias_to_fp16"), val = tensor<fp16, [5120]>(BLOBFILE(path = tensor<string, []>("@model_path/weights/weight.bin"), offset = tensor<uint64, []>(80245312)))];
            tensor<fp16, [1, 5120, 1, 1500]> input_19_cast_fp16 = conv(bias = blocks_1_mlp_0_bias_to_fp16, dilations = input_19_dilations_0, groups = input_19_groups_0, pad = input_19_pad_0, pad_type = input_19_pad_type_0, strides = input_19_strides_0, weight = blocks_1_mlp_0_weight_to_fp16, x = input_17_cast_fp16)[name = tensor<string, []>("input_19_cast_fp16")];
            tensor<string, []> input_21_mode_0 = const()[name = tensor<string, []>("input_21_mode_0"), val = tensor<string, []>("EXACT")];
            tensor<fp16, [1, 5120, 1, 1500]> input_21_cast_fp16 = gelu(mode = input_21_mode_0, x = input_19_cast_fp16)[name = tensor<string, []>("input_21_cast_fp16")];
            tensor<string, []> var_653_pad_type_0 = const()[name = tensor<string, []>("op_653_pad_type_0"), val = tensor<string, []>("valid")];
            tensor<int32, [2]> var_653_strides_0 = const()[name = tensor<string, []>("op_653_strides_0"), val = tensor<int32, [2]>([1, 1])];
            tensor<int32, [4]> var_653_pad_0 = const()[name = tensor<string, []>("op_653_pad_0"), val = tensor<int32, [4]>([0, 0, 0, 0])];
            tensor<int32, [2]> var_653_dilations_0 = const()[name = tensor<string, []>("op_653_dilations_0"), val = tensor<int32, [2]>([1, 1])];
            tensor<int32, []> var_653_groups_0 = const()[name = tensor<string, []>("op_653_groups_0"), val = tensor<int32, []>(1)];
            tensor<fp16, [1280, 5120, 1, 1]> blocks_1_mlp_2_weight_to_fp16 = const()[name = tensor<string, []>("blocks_1_mlp_2_weight_to_fp16"), val = tensor<fp16, [1280, 5120, 1, 1]>(BLOBFILE(path = tensor<string, []>("@model_path/weights/weight.bin"), offset = tensor<uint64, []>(80255616)))];
            tensor<fp16, [1280]> blocks_1_mlp_2_bias_to_fp16 = const()[name = tensor<string, []>("blocks_1_mlp_2_bias_to_fp16"), val = tensor<fp16, [1280]>(BLOBFILE(path = tensor<string, []>("@model_path/weights/weight.bin"), offset = tensor<uint64, []>(93362880)))];
            tensor<fp16, [1, 1280, 1, 1500]> var_653_cast_fp16 = conv(bias = blocks_1_mlp_2_bias_to_fp16, dilations = var_653_dilations_0, groups = var_653_groups_0, pad = var_653_pad_0, pad_type = var_653_pad_type_0, strides = var_653_strides_0, weight = blocks_1_mlp_2_weight_to_fp16, x = input_21_cast_fp16)[name = tensor<string, []>("op_653_cast_fp16")];
            tensor<fp16, [1, 1280, 1, 1500]> inputs_9_cast_fp16 = add(x = inputs_7_cast_fp16, y = var_653_cast_fp16)[name = tensor<string, []>("inputs_9_cast_fp16")];
            tensor<int32, []> var_662 = const()[name = tensor<string, []>("op_662"), val = tensor<int32, []>(1)];
            tensor<int32, [1]> input_23_axes_0 = const()[name = tensor<string, []>("input_23_axes_0"), val = tensor<int32, [1]>([1])];
            tensor<fp16, [1280]> input_23_gamma_0_to_fp16 = const()[name = tensor<string, []>("input_23_gamma_0_to_fp16"), val = tensor<fp16, [1280]>(BLOBFILE(path = tensor<string, []>("@model_path/weights/weight.bin"), offset = tensor<uint64, []>(93365504)))];
            tensor<fp16, [1280]> input_23_beta_0_to_fp16 = const()[name = tensor<string, []>("input_23_beta_0_to_fp16"), val = tensor<fp16, [1280]>(BLOBFILE(path = tensor<string, []>("@model_path/weights/weight.bin"), offset = tensor<uint64, []>(93368128)))];
            tensor<fp16, []> var_678_to_fp16 = const()[name = tensor<string, []>("op_678_to_fp16"), val = tensor<fp16, []>(0x1.5p-17)];
            tensor<fp16, [1, 1280, 1, 1500]> input_23_cast_fp16 = layer_norm(axes = input_23_axes_0, beta = input_23_beta_0_to_fp16, epsilon = var_678_to_fp16, gamma = input_23_gamma_0_to_fp16, x = inputs_9_cast_fp16)[name = tensor<string, []>("input_23_cast_fp16")];
            tensor<string, []> q_5_pad_type_0 = const()[name = tensor<string, []>("q_5_pad_type_0"), val = tensor<string, []>("valid")];
            tensor<int32, [2]> q_5_strides_0 = const()[name = tensor<string, []>("q_5_strides_0"), val = tensor<int32, [2]>([1, 1])];
            tensor<int32, [4]> q_5_pad_0 = const()[name = tensor<string, []>("q_5_pad_0"), val = tensor<int32, [4]>([0, 0, 0, 0])];
            tensor<int32, [2]> q_5_dilations_0 = const()[name = tensor<string, []>("q_5_dilations_0"), val = tensor<int32, [2]>([1, 1])];
            tensor<int32, []> q_5_groups_0 = const()[name = tensor<string, []>("q_5_groups_0"), val = tensor<int32, []>(1)];
            tensor<fp16, [1280, 1280, 1, 1]> var_713_weight_0_to_fp16 = const()[name = tensor<string, []>("op_713_weight_0_to_fp16"), val = tensor<fp16, [1280, 1280, 1, 1]>(BLOBFILE(path = tensor<string, []>("@model_path/weights/weight.bin"), offset = tensor<uint64, []>(93370752)))];
            tensor<fp16, [1280]> var_713_bias_0_to_fp16 = const()[name = tensor<string, []>("op_713_bias_0_to_fp16"), val = tensor<fp16, [1280]>(BLOBFILE(path = tensor<string, []>("@model_path/weights/weight.bin"), offset = tensor<uint64, []>(96647616)))];
            tensor<fp16, [1, 1280, 1, 1500]> var_713_cast_fp16 = conv(bias = var_713_bias_0_to_fp16, dilations = q_5_dilations_0, groups = q_5_groups_0, pad = q_5_pad_0, pad_type = q_5_pad_type_0, strides = q_5_strides_0, weight = var_713_weight_0_to_fp16, x = input_23_cast_fp16)[name = tensor<string, []>("op_713_cast_fp16")];
            tensor<string, []> k_5_pad_type_0 = const()[name = tensor<string, []>("k_5_pad_type_0"), val = tensor<string, []>("valid")];
            tensor<int32, [2]> k_5_strides_0 = const()[name = tensor<string, []>("k_5_strides_0"), val = tensor<int32, [2]>([1, 1])];
            tensor<int32, [4]> k_5_pad_0 = const()[name = tensor<string, []>("k_5_pad_0"), val = tensor<int32, [4]>([0, 0, 0, 0])];
            tensor<int32, [2]> k_5_dilations_0 = const()[name = tensor<string, []>("k_5_dilations_0"), val = tensor<int32, [2]>([1, 1])];
            tensor<int32, []> k_5_groups_0 = const()[name = tensor<string, []>("k_5_groups_0"), val = tensor<int32, []>(1)];
            tensor<fp16, [1280, 1280, 1, 1]> blocks_2_attn_key_weight_to_fp16 = const()[name = tensor<string, []>("blocks_2_attn_key_weight_to_fp16"), val = tensor<fp16, [1280, 1280, 1, 1]>(BLOBFILE(path = tensor<string, []>("@model_path/weights/weight.bin"), offset = tensor<uint64, []>(96650240)))];
            tensor<fp16, [1, 1280, 1, 1500]> k_5_cast_fp16 = conv(dilations = k_5_dilations_0, groups = k_5_groups_0, pad = k_5_pad_0, pad_type = k_5_pad_type_0, strides = k_5_strides_0, weight = blocks_2_attn_key_weight_to_fp16, x = input_23_cast_fp16)[name = tensor<string, []>("k_5_cast_fp16")];
            tensor<string, []> var_711_pad_type_0 = const()[name = tensor<string, []>("op_711_pad_type_0"), val = tensor<string, []>("valid")];
            tensor<int32, [2]> var_711_strides_0 = const()[name = tensor<string, []>("op_711_strides_0"), val = tensor<int32, [2]>([1, 1])];
            tensor<int32, [4]> var_711_pad_0 = const()[name = tensor<string, []>("op_711_pad_0"), val = tensor<int32, [4]>([0, 0, 0, 0])];
            tensor<int32, [2]> var_711_dilations_0 = const()[name = tensor<string, []>("op_711_dilations_0"), val = tensor<int32, [2]>([1, 1])];
            tensor<int32, []> var_711_groups_0 = const()[name = tensor<string, []>("op_711_groups_0"), val = tensor<int32, []>(1)];
            tensor<fp16, [1280, 1280, 1, 1]> blocks_2_attn_value_weight_to_fp16 = const()[name = tensor<string, []>("blocks_2_attn_value_weight_to_fp16"), val = tensor<fp16, [1280, 1280, 1, 1]>(BLOBFILE(path = tensor<string, []>("@model_path/weights/weight.bin"), offset = tensor<uint64, []>(99927104)))];
            tensor<fp16, [1280]> blocks_2_attn_value_bias_to_fp16 = const()[name = tensor<string, []>("blocks_2_attn_value_bias_to_fp16"), val = tensor<fp16, [1280]>(BLOBFILE(path = tensor<string, []>("@model_path/weights/weight.bin"), offset = tensor<uint64, []>(103203968)))];
            tensor<fp16, [1, 1280, 1, 1500]> var_711_cast_fp16 = conv(bias = blocks_2_attn_value_bias_to_fp16, dilations = var_711_dilations_0, groups = var_711_groups_0, pad = var_711_pad_0, pad_type = var_711_pad_type_0, strides = var_711_strides_0, weight = blocks_2_attn_value_weight_to_fp16, x = input_23_cast_fp16)[name = tensor<string, []>("op_711_cast_fp16")];
            tensor<int32, [20]> tile_6 = const()[name = tensor<string, []>("tile_6"), val = tensor<int32, [20]>([64, 64, 64, 64, 64, 64, 64, 64, 64, 64, 64, 64, 64, 64, 64, 64, 64, 64, 64, 64])];
            tensor<int32, []> var_714_axis_0 = const()[name = tensor<string, []>("op_714_axis_0"), val = tensor<int32, []>(1)];
            tensor<fp16, [1, 64, 1, 1500]> var_714_cast_fp16_0, tensor<fp16, [1, 64, 1, 1500]> var_714_cast_fp16_1, tensor<fp16, [1, 64, 1, 1500]> var_714_cast_fp16_2, tensor<fp16, [1, 64, 1, 1500]> var_714_cast_fp16_3, tensor<fp16, [1, 64, 1, 1500]> var_714_cast_fp16_4, tensor<fp16, [1, 64, 1, 1500]> var_714_cast_fp16_5, tensor<fp16, [1, 64, 1, 1500]> var_714_cast_fp16_6, tensor<fp16, [1, 64, 1, 1500]> var_714_cast_fp16_7, tensor<fp16, [1, 64, 1, 1500]> var_714_cast_fp16_8, tensor<fp16, [1, 64, 1, 1500]> var_714_cast_fp16_9, tensor<fp16, [1, 64, 1, 1500]> var_714_cast_fp16_10, tensor<fp16, [1, 64, 1, 1500]> var_714_cast_fp16_11, tensor<fp16, [1, 64, 1, 1500]> var_714_cast_fp16_12, tensor<fp16, [1, 64, 1, 1500]> var_714_cast_fp16_13, tensor<fp16, [1, 64, 1, 1500]> var_714_cast_fp16_14, tensor<fp16, [1, 64, 1, 1500]> var_714_cast_fp16_15, tensor<fp16, [1, 64, 1, 1500]> var_714_cast_fp16_16, tensor<fp16, [1, 64, 1, 1500]> var_714_cast_fp16_17, tensor<fp16, [1, 64, 1, 1500]> var_714_cast_fp16_18, tensor<fp16, [1, 64, 1, 1500]> var_714_cast_fp16_19 = split(axis = var_714_axis_0, split_sizes = tile_6, x = var_713_cast_fp16)[name = tensor<string, []>("op_714_cast_fp16")];
            tensor<int32, [4]> var_735_perm_0 = const()[name = tensor<string, []>("op_735_perm_0"), val = tensor<int32, [4]>([0, 3, 2, 1])];
            tensor<int32, [20]> tile_7 = const()[name = tensor<string, []>("tile_7"), val = tensor<int32, [20]>([64, 64, 64, 64, 64, 64, 64, 64, 64, 64, 64, 64, 64, 64, 64, 64, 64, 64, 64, 64])];
            tensor<int32, []> var_736_axis_0 = const()[name = tensor<string, []>("op_736_axis_0"), val = tensor<int32, []>(3)];
            tensor<fp16, [1, 1500, 1, 1280]> var_735_cast_fp16 = transpose(perm = var_735_perm_0, x = k_5_cast_fp16)[name = tensor<string, []>("transpose_30")];
            tensor<fp16, [1, 1500, 1, 64]> var_736_cast_fp16_0, tensor<fp16, [1, 1500, 1, 64]> var_736_cast_fp16_1, tensor<fp16, [1, 1500, 1, 64]> var_736_cast_fp16_2, tensor<fp16, [1, 1500, 1, 64]> var_736_cast_fp16_3, tensor<fp16, [1, 1500, 1, 64]> var_736_cast_fp16_4, tensor<fp16, [1, 1500, 1, 64]> var_736_cast_fp16_5, tensor<fp16, [1, 1500, 1, 64]> var_736_cast_fp16_6, tensor<fp16, [1, 1500, 1, 64]> var_736_cast_fp16_7, tensor<fp16, [1, 1500, 1, 64]> var_736_cast_fp16_8, tensor<fp16, [1, 1500, 1, 64]> var_736_cast_fp16_9, tensor<fp16, [1, 1500, 1, 64]> var_736_cast_fp16_10, tensor<fp16, [1, 1500, 1, 64]> var_736_cast_fp16_11, tensor<fp16, [1, 1500, 1, 64]> var_736_cast_fp16_12, tensor<fp16, [1, 1500, 1, 64]> var_736_cast_fp16_13, tensor<fp16, [1, 1500, 1, 64]> var_736_cast_fp16_14, tensor<fp16, [1, 1500, 1, 64]> var_736_cast_fp16_15, tensor<fp16, [1, 1500, 1, 64]> var_736_cast_fp16_16, tensor<fp16, [1, 1500, 1, 64]> var_736_cast_fp16_17, tensor<fp16, [1, 1500, 1, 64]> var_736_cast_fp16_18, tensor<fp16, [1, 1500, 1, 64]> var_736_cast_fp16_19 = split(axis = var_736_axis_0, split_sizes = tile_7, x = var_735_cast_fp16)[name = tensor<string, []>("op_736_cast_fp16")];
            tensor<int32, [20]> tile_8 = const()[name = tensor<string, []>("tile_8"), val = tensor<int32, [20]>([64, 64, 64, 64, 64, 64, 64, 64, 64, 64, 64, 64, 64, 64, 64, 64, 64, 64, 64, 64])];
            tensor<int32, []> var_757_axis_0 = const()[name = tensor<string, []>("op_757_axis_0"), val = tensor<int32, []>(1)];
            tensor<fp16, [1, 64, 1, 1500]> var_757_cast_fp16_0, tensor<fp16, [1, 64, 1, 1500]> var_757_cast_fp16_1, tensor<fp16, [1, 64, 1, 1500]> var_757_cast_fp16_2, tensor<fp16, [1, 64, 1, 1500]> var_757_cast_fp16_3, tensor<fp16, [1, 64, 1, 1500]> var_757_cast_fp16_4, tensor<fp16, [1, 64, 1, 1500]> var_757_cast_fp16_5, tensor<fp16, [1, 64, 1, 1500]> var_757_cast_fp16_6, tensor<fp16, [1, 64, 1, 1500]> var_757_cast_fp16_7, tensor<fp16, [1, 64, 1, 1500]> var_757_cast_fp16_8, tensor<fp16, [1, 64, 1, 1500]> var_757_cast_fp16_9, tensor<fp16, [1, 64, 1, 1500]> var_757_cast_fp16_10, tensor<fp16, [1, 64, 1, 1500]> var_757_cast_fp16_11, tensor<fp16, [1, 64, 1, 1500]> var_757_cast_fp16_12, tensor<fp16, [1, 64, 1, 1500]> var_757_cast_fp16_13, tensor<fp16, [1, 64, 1, 1500]> var_757_cast_fp16_14, tensor<fp16, [1, 64, 1, 1500]> var_757_cast_fp16_15, tensor<fp16, [1, 64, 1, 1500]> var_757_cast_fp16_16, tensor<fp16, [1, 64, 1, 1500]> var_757_cast_fp16_17, tensor<fp16, [1, 64, 1, 1500]> var_757_cast_fp16_18, tensor<fp16, [1, 64, 1, 1500]> var_757_cast_fp16_19 = split(axis = var_757_axis_0, split_sizes = tile_8, x = var_711_cast_fp16)[name = tensor<string, []>("op_757_cast_fp16")];
            tensor<string, []> aw_81_equation_0 = const()[name = tensor<string, []>("aw_81_equation_0"), val = tensor<string, []>("bkhc,bchq->bkhq")];
            tensor<fp16, [1, 1500, 1, 1500]> aw_81_cast_fp16 = einsum(equation = aw_81_equation_0, values = (var_736_cast_fp16_0, var_714_cast_fp16_0))[name = tensor<string, []>("aw_81_cast_fp16")];
            tensor<string, []> aw_83_equation_0 = const()[name = tensor<string, []>("aw_83_equation_0"), val = tensor<string, []>("bkhc,bchq->bkhq")];
            tensor<fp16, [1, 1500, 1, 1500]> aw_83_cast_fp16 = einsum(equation = aw_83_equation_0, values = (var_736_cast_fp16_1, var_714_cast_fp16_1))[name = tensor<string, []>("aw_83_cast_fp16")];
            tensor<string, []> aw_85_equation_0 = const()[name = tensor<string, []>("aw_85_equation_0"), val = tensor<string, []>("bkhc,bchq->bkhq")];
            tensor<fp16, [1, 1500, 1, 1500]> aw_85_cast_fp16 = einsum(equation = aw_85_equation_0, values = (var_736_cast_fp16_2, var_714_cast_fp16_2))[name = tensor<string, []>("aw_85_cast_fp16")];
            tensor<string, []> aw_87_equation_0 = const()[name = tensor<string, []>("aw_87_equation_0"), val = tensor<string, []>("bkhc,bchq->bkhq")];
            tensor<fp16, [1, 1500, 1, 1500]> aw_87_cast_fp16 = einsum(equation = aw_87_equation_0, values = (var_736_cast_fp16_3, var_714_cast_fp16_3))[name = tensor<string, []>("aw_87_cast_fp16")];
            tensor<string, []> aw_89_equation_0 = const()[name = tensor<string, []>("aw_89_equation_0"), val = tensor<string, []>("bkhc,bchq->bkhq")];
            tensor<fp16, [1, 1500, 1, 1500]> aw_89_cast_fp16 = einsum(equation = aw_89_equation_0, values = (var_736_cast_fp16_4, var_714_cast_fp16_4))[name = tensor<string, []>("aw_89_cast_fp16")];
            tensor<string, []> aw_91_equation_0 = const()[name = tensor<string, []>("aw_91_equation_0"), val = tensor<string, []>("bkhc,bchq->bkhq")];
            tensor<fp16, [1, 1500, 1, 1500]> aw_91_cast_fp16 = einsum(equation = aw_91_equation_0, values = (var_736_cast_fp16_5, var_714_cast_fp16_5))[name = tensor<string, []>("aw_91_cast_fp16")];
            tensor<string, []> aw_93_equation_0 = const()[name = tensor<string, []>("aw_93_equation_0"), val = tensor<string, []>("bkhc,bchq->bkhq")];
            tensor<fp16, [1, 1500, 1, 1500]> aw_93_cast_fp16 = einsum(equation = aw_93_equation_0, values = (var_736_cast_fp16_6, var_714_cast_fp16_6))[name = tensor<string, []>("aw_93_cast_fp16")];
            tensor<string, []> aw_95_equation_0 = const()[name = tensor<string, []>("aw_95_equation_0"), val = tensor<string, []>("bkhc,bchq->bkhq")];
            tensor<fp16, [1, 1500, 1, 1500]> aw_95_cast_fp16 = einsum(equation = aw_95_equation_0, values = (var_736_cast_fp16_7, var_714_cast_fp16_7))[name = tensor<string, []>("aw_95_cast_fp16")];
            tensor<string, []> aw_97_equation_0 = const()[name = tensor<string, []>("aw_97_equation_0"), val = tensor<string, []>("bkhc,bchq->bkhq")];
            tensor<fp16, [1, 1500, 1, 1500]> aw_97_cast_fp16 = einsum(equation = aw_97_equation_0, values = (var_736_cast_fp16_8, var_714_cast_fp16_8))[name = tensor<string, []>("aw_97_cast_fp16")];
            tensor<string, []> aw_99_equation_0 = const()[name = tensor<string, []>("aw_99_equation_0"), val = tensor<string, []>("bkhc,bchq->bkhq")];
            tensor<fp16, [1, 1500, 1, 1500]> aw_99_cast_fp16 = einsum(equation = aw_99_equation_0, values = (var_736_cast_fp16_9, var_714_cast_fp16_9))[name = tensor<string, []>("aw_99_cast_fp16")];
            tensor<string, []> aw_101_equation_0 = const()[name = tensor<string, []>("aw_101_equation_0"), val = tensor<string, []>("bkhc,bchq->bkhq")];
            tensor<fp16, [1, 1500, 1, 1500]> aw_101_cast_fp16 = einsum(equation = aw_101_equation_0, values = (var_736_cast_fp16_10, var_714_cast_fp16_10))[name = tensor<string, []>("aw_101_cast_fp16")];
            tensor<string, []> aw_103_equation_0 = const()[name = tensor<string, []>("aw_103_equation_0"), val = tensor<string, []>("bkhc,bchq->bkhq")];
            tensor<fp16, [1, 1500, 1, 1500]> aw_103_cast_fp16 = einsum(equation = aw_103_equation_0, values = (var_736_cast_fp16_11, var_714_cast_fp16_11))[name = tensor<string, []>("aw_103_cast_fp16")];
            tensor<string, []> aw_105_equation_0 = const()[name = tensor<string, []>("aw_105_equation_0"), val = tensor<string, []>("bkhc,bchq->bkhq")];
            tensor<fp16, [1, 1500, 1, 1500]> aw_105_cast_fp16 = einsum(equation = aw_105_equation_0, values = (var_736_cast_fp16_12, var_714_cast_fp16_12))[name = tensor<string, []>("aw_105_cast_fp16")];
            tensor<string, []> aw_107_equation_0 = const()[name = tensor<string, []>("aw_107_equation_0"), val = tensor<string, []>("bkhc,bchq->bkhq")];
            tensor<fp16, [1, 1500, 1, 1500]> aw_107_cast_fp16 = einsum(equation = aw_107_equation_0, values = (var_736_cast_fp16_13, var_714_cast_fp16_13))[name = tensor<string, []>("aw_107_cast_fp16")];
            tensor<string, []> aw_109_equation_0 = const()[name = tensor<string, []>("aw_109_equation_0"), val = tensor<string, []>("bkhc,bchq->bkhq")];
            tensor<fp16, [1, 1500, 1, 1500]> aw_109_cast_fp16 = einsum(equation = aw_109_equation_0, values = (var_736_cast_fp16_14, var_714_cast_fp16_14))[name = tensor<string, []>("aw_109_cast_fp16")];
            tensor<string, []> aw_111_equation_0 = const()[name = tensor<string, []>("aw_111_equation_0"), val = tensor<string, []>("bkhc,bchq->bkhq")];
            tensor<fp16, [1, 1500, 1, 1500]> aw_111_cast_fp16 = einsum(equation = aw_111_equation_0, values = (var_736_cast_fp16_15, var_714_cast_fp16_15))[name = tensor<string, []>("aw_111_cast_fp16")];
            tensor<string, []> aw_113_equation_0 = const()[name = tensor<string, []>("aw_113_equation_0"), val = tensor<string, []>("bkhc,bchq->bkhq")];
            tensor<fp16, [1, 1500, 1, 1500]> aw_113_cast_fp16 = einsum(equation = aw_113_equation_0, values = (var_736_cast_fp16_16, var_714_cast_fp16_16))[name = tensor<string, []>("aw_113_cast_fp16")];
            tensor<string, []> aw_115_equation_0 = const()[name = tensor<string, []>("aw_115_equation_0"), val = tensor<string, []>("bkhc,bchq->bkhq")];
            tensor<fp16, [1, 1500, 1, 1500]> aw_115_cast_fp16 = einsum(equation = aw_115_equation_0, values = (var_736_cast_fp16_17, var_714_cast_fp16_17))[name = tensor<string, []>("aw_115_cast_fp16")];
            tensor<string, []> aw_117_equation_0 = const()[name = tensor<string, []>("aw_117_equation_0"), val = tensor<string, []>("bkhc,bchq->bkhq")];
            tensor<fp16, [1, 1500, 1, 1500]> aw_117_cast_fp16 = einsum(equation = aw_117_equation_0, values = (var_736_cast_fp16_18, var_714_cast_fp16_18))[name = tensor<string, []>("aw_117_cast_fp16")];
            tensor<string, []> aw_119_equation_0 = const()[name = tensor<string, []>("aw_119_equation_0"), val = tensor<string, []>("bkhc,bchq->bkhq")];
            tensor<fp16, [1, 1500, 1, 1500]> aw_119_cast_fp16 = einsum(equation = aw_119_equation_0, values = (var_736_cast_fp16_19, var_714_cast_fp16_19))[name = tensor<string, []>("aw_119_cast_fp16")];
            tensor<fp16, [1, 1500, 1, 1500]> var_818_cast_fp16 = softmax(axis = var_662, x = aw_81_cast_fp16)[name = tensor<string, []>("op_818_cast_fp16")];
            tensor<fp16, [1, 1500, 1, 1500]> var_819_cast_fp16 = softmax(axis = var_662, x = aw_83_cast_fp16)[name = tensor<string, []>("op_819_cast_fp16")];
            tensor<fp16, [1, 1500, 1, 1500]> var_820_cast_fp16 = softmax(axis = var_662, x = aw_85_cast_fp16)[name = tensor<string, []>("op_820_cast_fp16")];
            tensor<fp16, [1, 1500, 1, 1500]> var_821_cast_fp16 = softmax(axis = var_662, x = aw_87_cast_fp16)[name = tensor<string, []>("op_821_cast_fp16")];
            tensor<fp16, [1, 1500, 1, 1500]> var_822_cast_fp16 = softmax(axis = var_662, x = aw_89_cast_fp16)[name = tensor<string, []>("op_822_cast_fp16")];
            tensor<fp16, [1, 1500, 1, 1500]> var_823_cast_fp16 = softmax(axis = var_662, x = aw_91_cast_fp16)[name = tensor<string, []>("op_823_cast_fp16")];
            tensor<fp16, [1, 1500, 1, 1500]> var_824_cast_fp16 = softmax(axis = var_662, x = aw_93_cast_fp16)[name = tensor<string, []>("op_824_cast_fp16")];
            tensor<fp16, [1, 1500, 1, 1500]> var_825_cast_fp16 = softmax(axis = var_662, x = aw_95_cast_fp16)[name = tensor<string, []>("op_825_cast_fp16")];
            tensor<fp16, [1, 1500, 1, 1500]> var_826_cast_fp16 = softmax(axis = var_662, x = aw_97_cast_fp16)[name = tensor<string, []>("op_826_cast_fp16")];
            tensor<fp16, [1, 1500, 1, 1500]> var_827_cast_fp16 = softmax(axis = var_662, x = aw_99_cast_fp16)[name = tensor<string, []>("op_827_cast_fp16")];
            tensor<fp16, [1, 1500, 1, 1500]> var_828_cast_fp16 = softmax(axis = var_662, x = aw_101_cast_fp16)[name = tensor<string, []>("op_828_cast_fp16")];
            tensor<fp16, [1, 1500, 1, 1500]> var_829_cast_fp16 = softmax(axis = var_662, x = aw_103_cast_fp16)[name = tensor<string, []>("op_829_cast_fp16")];
            tensor<fp16, [1, 1500, 1, 1500]> var_830_cast_fp16 = softmax(axis = var_662, x = aw_105_cast_fp16)[name = tensor<string, []>("op_830_cast_fp16")];
            tensor<fp16, [1, 1500, 1, 1500]> var_831_cast_fp16 = softmax(axis = var_662, x = aw_107_cast_fp16)[name = tensor<string, []>("op_831_cast_fp16")];
            tensor<fp16, [1, 1500, 1, 1500]> var_832_cast_fp16 = softmax(axis = var_662, x = aw_109_cast_fp16)[name = tensor<string, []>("op_832_cast_fp16")];
            tensor<fp16, [1, 1500, 1, 1500]> var_833_cast_fp16 = softmax(axis = var_662, x = aw_111_cast_fp16)[name = tensor<string, []>("op_833_cast_fp16")];
            tensor<fp16, [1, 1500, 1, 1500]> var_834_cast_fp16 = softmax(axis = var_662, x = aw_113_cast_fp16)[name = tensor<string, []>("op_834_cast_fp16")];
            tensor<fp16, [1, 1500, 1, 1500]> var_835_cast_fp16 = softmax(axis = var_662, x = aw_115_cast_fp16)[name = tensor<string, []>("op_835_cast_fp16")];
            tensor<fp16, [1, 1500, 1, 1500]> var_836_cast_fp16 = softmax(axis = var_662, x = aw_117_cast_fp16)[name = tensor<string, []>("op_836_cast_fp16")];
            tensor<fp16, [1, 1500, 1, 1500]> var_837_cast_fp16 = softmax(axis = var_662, x = aw_119_cast_fp16)[name = tensor<string, []>("op_837_cast_fp16")];
            tensor<string, []> var_839_equation_0 = const()[name = tensor<string, []>("op_839_equation_0"), val = tensor<string, []>("bchk,bkhq->bchq")];
            tensor<fp16, [1, 64, 1, 1500]> var_839_cast_fp16 = einsum(equation = var_839_equation_0, values = (var_757_cast_fp16_0, var_818_cast_fp16))[name = tensor<string, []>("op_839_cast_fp16")];
            tensor<string, []> var_841_equation_0 = const()[name = tensor<string, []>("op_841_equation_0"), val = tensor<string, []>("bchk,bkhq->bchq")];
            tensor<fp16, [1, 64, 1, 1500]> var_841_cast_fp16 = einsum(equation = var_841_equation_0, values = (var_757_cast_fp16_1, var_819_cast_fp16))[name = tensor<string, []>("op_841_cast_fp16")];
            tensor<string, []> var_843_equation_0 = const()[name = tensor<string, []>("op_843_equation_0"), val = tensor<string, []>("bchk,bkhq->bchq")];
            tensor<fp16, [1, 64, 1, 1500]> var_843_cast_fp16 = einsum(equation = var_843_equation_0, values = (var_757_cast_fp16_2, var_820_cast_fp16))[name = tensor<string, []>("op_843_cast_fp16")];
            tensor<string, []> var_845_equation_0 = const()[name = tensor<string, []>("op_845_equation_0"), val = tensor<string, []>("bchk,bkhq->bchq")];
            tensor<fp16, [1, 64, 1, 1500]> var_845_cast_fp16 = einsum(equation = var_845_equation_0, values = (var_757_cast_fp16_3, var_821_cast_fp16))[name = tensor<string, []>("op_845_cast_fp16")];
            tensor<string, []> var_847_equation_0 = const()[name = tensor<string, []>("op_847_equation_0"), val = tensor<string, []>("bchk,bkhq->bchq")];
            tensor<fp16, [1, 64, 1, 1500]> var_847_cast_fp16 = einsum(equation = var_847_equation_0, values = (var_757_cast_fp16_4, var_822_cast_fp16))[name = tensor<string, []>("op_847_cast_fp16")];
            tensor<string, []> var_849_equation_0 = const()[name = tensor<string, []>("op_849_equation_0"), val = tensor<string, []>("bchk,bkhq->bchq")];
            tensor<fp16, [1, 64, 1, 1500]> var_849_cast_fp16 = einsum(equation = var_849_equation_0, values = (var_757_cast_fp16_5, var_823_cast_fp16))[name = tensor<string, []>("op_849_cast_fp16")];
            tensor<string, []> var_851_equation_0 = const()[name = tensor<string, []>("op_851_equation_0"), val = tensor<string, []>("bchk,bkhq->bchq")];
            tensor<fp16, [1, 64, 1, 1500]> var_851_cast_fp16 = einsum(equation = var_851_equation_0, values = (var_757_cast_fp16_6, var_824_cast_fp16))[name = tensor<string, []>("op_851_cast_fp16")];
            tensor<string, []> var_853_equation_0 = const()[name = tensor<string, []>("op_853_equation_0"), val = tensor<string, []>("bchk,bkhq->bchq")];
            tensor<fp16, [1, 64, 1, 1500]> var_853_cast_fp16 = einsum(equation = var_853_equation_0, values = (var_757_cast_fp16_7, var_825_cast_fp16))[name = tensor<string, []>("op_853_cast_fp16")];
            tensor<string, []> var_855_equation_0 = const()[name = tensor<string, []>("op_855_equation_0"), val = tensor<string, []>("bchk,bkhq->bchq")];
            tensor<fp16, [1, 64, 1, 1500]> var_855_cast_fp16 = einsum(equation = var_855_equation_0, values = (var_757_cast_fp16_8, var_826_cast_fp16))[name = tensor<string, []>("op_855_cast_fp16")];
            tensor<string, []> var_857_equation_0 = const()[name = tensor<string, []>("op_857_equation_0"), val = tensor<string, []>("bchk,bkhq->bchq")];
            tensor<fp16, [1, 64, 1, 1500]> var_857_cast_fp16 = einsum(equation = var_857_equation_0, values = (var_757_cast_fp16_9, var_827_cast_fp16))[name = tensor<string, []>("op_857_cast_fp16")];
            tensor<string, []> var_859_equation_0 = const()[name = tensor<string, []>("op_859_equation_0"), val = tensor<string, []>("bchk,bkhq->bchq")];
            tensor<fp16, [1, 64, 1, 1500]> var_859_cast_fp16 = einsum(equation = var_859_equation_0, values = (var_757_cast_fp16_10, var_828_cast_fp16))[name = tensor<string, []>("op_859_cast_fp16")];
            tensor<string, []> var_861_equation_0 = const()[name = tensor<string, []>("op_861_equation_0"), val = tensor<string, []>("bchk,bkhq->bchq")];
            tensor<fp16, [1, 64, 1, 1500]> var_861_cast_fp16 = einsum(equation = var_861_equation_0, values = (var_757_cast_fp16_11, var_829_cast_fp16))[name = tensor<string, []>("op_861_cast_fp16")];
            tensor<string, []> var_863_equation_0 = const()[name = tensor<string, []>("op_863_equation_0"), val = tensor<string, []>("bchk,bkhq->bchq")];
            tensor<fp16, [1, 64, 1, 1500]> var_863_cast_fp16 = einsum(equation = var_863_equation_0, values = (var_757_cast_fp16_12, var_830_cast_fp16))[name = tensor<string, []>("op_863_cast_fp16")];
            tensor<string, []> var_865_equation_0 = const()[name = tensor<string, []>("op_865_equation_0"), val = tensor<string, []>("bchk,bkhq->bchq")];
            tensor<fp16, [1, 64, 1, 1500]> var_865_cast_fp16 = einsum(equation = var_865_equation_0, values = (var_757_cast_fp16_13, var_831_cast_fp16))[name = tensor<string, []>("op_865_cast_fp16")];
            tensor<string, []> var_867_equation_0 = const()[name = tensor<string, []>("op_867_equation_0"), val = tensor<string, []>("bchk,bkhq->bchq")];
            tensor<fp16, [1, 64, 1, 1500]> var_867_cast_fp16 = einsum(equation = var_867_equation_0, values = (var_757_cast_fp16_14, var_832_cast_fp16))[name = tensor<string, []>("op_867_cast_fp16")];
            tensor<string, []> var_869_equation_0 = const()[name = tensor<string, []>("op_869_equation_0"), val = tensor<string, []>("bchk,bkhq->bchq")];
            tensor<fp16, [1, 64, 1, 1500]> var_869_cast_fp16 = einsum(equation = var_869_equation_0, values = (var_757_cast_fp16_15, var_833_cast_fp16))[name = tensor<string, []>("op_869_cast_fp16")];
            tensor<string, []> var_871_equation_0 = const()[name = tensor<string, []>("op_871_equation_0"), val = tensor<string, []>("bchk,bkhq->bchq")];
            tensor<fp16, [1, 64, 1, 1500]> var_871_cast_fp16 = einsum(equation = var_871_equation_0, values = (var_757_cast_fp16_16, var_834_cast_fp16))[name = tensor<string, []>("op_871_cast_fp16")];
            tensor<string, []> var_873_equation_0 = const()[name = tensor<string, []>("op_873_equation_0"), val = tensor<string, []>("bchk,bkhq->bchq")];
            tensor<fp16, [1, 64, 1, 1500]> var_873_cast_fp16 = einsum(equation = var_873_equation_0, values = (var_757_cast_fp16_17, var_835_cast_fp16))[name = tensor<string, []>("op_873_cast_fp16")];
            tensor<string, []> var_875_equation_0 = const()[name = tensor<string, []>("op_875_equation_0"), val = tensor<string, []>("bchk,bkhq->bchq")];
            tensor<fp16, [1, 64, 1, 1500]> var_875_cast_fp16 = einsum(equation = var_875_equation_0, values = (var_757_cast_fp16_18, var_836_cast_fp16))[name = tensor<string, []>("op_875_cast_fp16")];
            tensor<string, []> var_877_equation_0 = const()[name = tensor<string, []>("op_877_equation_0"), val = tensor<string, []>("bchk,bkhq->bchq")];
            tensor<fp16, [1, 64, 1, 1500]> var_877_cast_fp16 = einsum(equation = var_877_equation_0, values = (var_757_cast_fp16_19, var_837_cast_fp16))[name = tensor<string, []>("op_877_cast_fp16")];
            tensor<bool, []> input_25_interleave_0 = const()[name = tensor<string, []>("input_25_interleave_0"), val = tensor<bool, []>(false)];
            tensor<fp16, [1, 1280, 1, 1500]> input_25_cast_fp16 = concat(axis = var_662, interleave = input_25_interleave_0, values = (var_839_cast_fp16, var_841_cast_fp16, var_843_cast_fp16, var_845_cast_fp16, var_847_cast_fp16, var_849_cast_fp16, var_851_cast_fp16, var_853_cast_fp16, var_855_cast_fp16, var_857_cast_fp16, var_859_cast_fp16, var_861_cast_fp16, var_863_cast_fp16, var_865_cast_fp16, var_867_cast_fp16, var_869_cast_fp16, var_871_cast_fp16, var_873_cast_fp16, var_875_cast_fp16, var_877_cast_fp16))[name = tensor<string, []>("input_25_cast_fp16")];
            tensor<string, []> var_886_pad_type_0 = const()[name = tensor<string, []>("op_886_pad_type_0"), val = tensor<string, []>("valid")];
            tensor<int32, [2]> var_886_strides_0 = const()[name = tensor<string, []>("op_886_strides_0"), val = tensor<int32, [2]>([1, 1])];
            tensor<int32, [4]> var_886_pad_0 = const()[name = tensor<string, []>("op_886_pad_0"), val = tensor<int32, [4]>([0, 0, 0, 0])];
            tensor<int32, [2]> var_886_dilations_0 = const()[name = tensor<string, []>("op_886_dilations_0"), val = tensor<int32, [2]>([1, 1])];
            tensor<int32, []> var_886_groups_0 = const()[name = tensor<string, []>("op_886_groups_0"), val = tensor<int32, []>(1)];
            tensor<fp16, [1280, 1280, 1, 1]> blocks_2_attn_out_weight_to_fp16 = const()[name = tensor<string, []>("blocks_2_attn_out_weight_to_fp16"), val = tensor<fp16, [1280, 1280, 1, 1]>(BLOBFILE(path = tensor<string, []>("@model_path/weights/weight.bin"), offset = tensor<uint64, []>(103206592)))];
            tensor<fp16, [1280]> blocks_2_attn_out_bias_to_fp16 = const()[name = tensor<string, []>("blocks_2_attn_out_bias_to_fp16"), val = tensor<fp16, [1280]>(BLOBFILE(path = tensor<string, []>("@model_path/weights/weight.bin"), offset = tensor<uint64, []>(106483456)))];
            tensor<fp16, [1, 1280, 1, 1500]> var_886_cast_fp16 = conv(bias = blocks_2_attn_out_bias_to_fp16, dilations = var_886_dilations_0, groups = var_886_groups_0, pad = var_886_pad_0, pad_type = var_886_pad_type_0, strides = var_886_strides_0, weight = blocks_2_attn_out_weight_to_fp16, x = input_25_cast_fp16)[name = tensor<string, []>("op_886_cast_fp16")];
            tensor<fp16, [1, 1280, 1, 1500]> inputs_11_cast_fp16 = add(x = inputs_9_cast_fp16, y = var_886_cast_fp16)[name = tensor<string, []>("inputs_11_cast_fp16")];
            tensor<int32, [1]> input_27_axes_0 = const()[name = tensor<string, []>("input_27_axes_0"), val = tensor<int32, [1]>([1])];
            tensor<fp16, [1280]> input_27_gamma_0_to_fp16 = const()[name = tensor<string, []>("input_27_gamma_0_to_fp16"), val = tensor<fp16, [1280]>(BLOBFILE(path = tensor<string, []>("@model_path/weights/weight.bin"), offset = tensor<uint64, []>(106486080)))];
            tensor<fp16, [1280]> input_27_beta_0_to_fp16 = const()[name = tensor<string, []>("input_27_beta_0_to_fp16"), val = tensor<fp16, [1280]>(BLOBFILE(path = tensor<string, []>("@model_path/weights/weight.bin"), offset = tensor<uint64, []>(106488704)))];
            tensor<fp16, []> var_896_to_fp16 = const()[name = tensor<string, []>("op_896_to_fp16"), val = tensor<fp16, []>(0x1.5p-17)];
            tensor<fp16, [1, 1280, 1, 1500]> input_27_cast_fp16 = layer_norm(axes = input_27_axes_0, beta = input_27_beta_0_to_fp16, epsilon = var_896_to_fp16, gamma = input_27_gamma_0_to_fp16, x = inputs_11_cast_fp16)[name = tensor<string, []>("input_27_cast_fp16")];
            tensor<string, []> input_29_pad_type_0 = const()[name = tensor<string, []>("input_29_pad_type_0"), val = tensor<string, []>("valid")];
            tensor<int32, [2]> input_29_strides_0 = const()[name = tensor<string, []>("input_29_strides_0"), val = tensor<int32, [2]>([1, 1])];
            tensor<int32, [4]> input_29_pad_0 = const()[name = tensor<string, []>("input_29_pad_0"), val = tensor<int32, [4]>([0, 0, 0, 0])];
            tensor<int32, [2]> input_29_dilations_0 = const()[name = tensor<string, []>("input_29_dilations_0"), val = tensor<int32, [2]>([1, 1])];
            tensor<int32, []> input_29_groups_0 = const()[name = tensor<string, []>("input_29_groups_0"), val = tensor<int32, []>(1)];
            tensor<fp16, [5120, 1280, 1, 1]> blocks_2_mlp_0_weight_to_fp16 = const()[name = tensor<string, []>("blocks_2_mlp_0_weight_to_fp16"), val = tensor<fp16, [5120, 1280, 1, 1]>(BLOBFILE(path = tensor<string, []>("@model_path/weights/weight.bin"), offset = tensor<uint64, []>(106491328)))];
            tensor<fp16, [5120]> blocks_2_mlp_0_bias_to_fp16 = const()[name = tensor<string, []>("blocks_2_mlp_0_bias_to_fp16"), val = tensor<fp16, [5120]>(BLOBFILE(path = tensor<string, []>("@model_path/weights/weight.bin"), offset = tensor<uint64, []>(119598592)))];
            tensor<fp16, [1, 5120, 1, 1500]> input_29_cast_fp16 = conv(bias = blocks_2_mlp_0_bias_to_fp16, dilations = input_29_dilations_0, groups = input_29_groups_0, pad = input_29_pad_0, pad_type = input_29_pad_type_0, strides = input_29_strides_0, weight = blocks_2_mlp_0_weight_to_fp16, x = input_27_cast_fp16)[name = tensor<string, []>("input_29_cast_fp16")];
            tensor<string, []> input_31_mode_0 = const()[name = tensor<string, []>("input_31_mode_0"), val = tensor<string, []>("EXACT")];
            tensor<fp16, [1, 5120, 1, 1500]> input_31_cast_fp16 = gelu(mode = input_31_mode_0, x = input_29_cast_fp16)[name = tensor<string, []>("input_31_cast_fp16")];
            tensor<string, []> var_922_pad_type_0 = const()[name = tensor<string, []>("op_922_pad_type_0"), val = tensor<string, []>("valid")];
            tensor<int32, [2]> var_922_strides_0 = const()[name = tensor<string, []>("op_922_strides_0"), val = tensor<int32, [2]>([1, 1])];
            tensor<int32, [4]> var_922_pad_0 = const()[name = tensor<string, []>("op_922_pad_0"), val = tensor<int32, [4]>([0, 0, 0, 0])];
            tensor<int32, [2]> var_922_dilations_0 = const()[name = tensor<string, []>("op_922_dilations_0"), val = tensor<int32, [2]>([1, 1])];
            tensor<int32, []> var_922_groups_0 = const()[name = tensor<string, []>("op_922_groups_0"), val = tensor<int32, []>(1)];
            tensor<fp16, [1280, 5120, 1, 1]> blocks_2_mlp_2_weight_to_fp16 = const()[name = tensor<string, []>("blocks_2_mlp_2_weight_to_fp16"), val = tensor<fp16, [1280, 5120, 1, 1]>(BLOBFILE(path = tensor<string, []>("@model_path/weights/weight.bin"), offset = tensor<uint64, []>(119608896)))];
            tensor<fp16, [1280]> blocks_2_mlp_2_bias_to_fp16 = const()[name = tensor<string, []>("blocks_2_mlp_2_bias_to_fp16"), val = tensor<fp16, [1280]>(BLOBFILE(path = tensor<string, []>("@model_path/weights/weight.bin"), offset = tensor<uint64, []>(132716160)))];
            tensor<fp16, [1, 1280, 1, 1500]> var_922_cast_fp16 = conv(bias = blocks_2_mlp_2_bias_to_fp16, dilations = var_922_dilations_0, groups = var_922_groups_0, pad = var_922_pad_0, pad_type = var_922_pad_type_0, strides = var_922_strides_0, weight = blocks_2_mlp_2_weight_to_fp16, x = input_31_cast_fp16)[name = tensor<string, []>("op_922_cast_fp16")];
            tensor<fp16, [1, 1280, 1, 1500]> inputs_13_cast_fp16 = add(x = inputs_11_cast_fp16, y = var_922_cast_fp16)[name = tensor<string, []>("inputs_13_cast_fp16")];
            tensor<int32, []> var_931 = const()[name = tensor<string, []>("op_931"), val = tensor<int32, []>(1)];
            tensor<int32, [1]> input_33_axes_0 = const()[name = tensor<string, []>("input_33_axes_0"), val = tensor<int32, [1]>([1])];
            tensor<fp16, [1280]> input_33_gamma_0_to_fp16 = const()[name = tensor<string, []>("input_33_gamma_0_to_fp16"), val = tensor<fp16, [1280]>(BLOBFILE(path = tensor<string, []>("@model_path/weights/weight.bin"), offset = tensor<uint64, []>(132718784)))];
            tensor<fp16, [1280]> input_33_beta_0_to_fp16 = const()[name = tensor<string, []>("input_33_beta_0_to_fp16"), val = tensor<fp16, [1280]>(BLOBFILE(path = tensor<string, []>("@model_path/weights/weight.bin"), offset = tensor<uint64, []>(132721408)))];
            tensor<fp16, []> var_947_to_fp16 = const()[name = tensor<string, []>("op_947_to_fp16"), val = tensor<fp16, []>(0x1.5p-17)];
            tensor<fp16, [1, 1280, 1, 1500]> input_33_cast_fp16 = layer_norm(axes = input_33_axes_0, beta = input_33_beta_0_to_fp16, epsilon = var_947_to_fp16, gamma = input_33_gamma_0_to_fp16, x = inputs_13_cast_fp16)[name = tensor<string, []>("input_33_cast_fp16")];
            tensor<string, []> q_7_pad_type_0 = const()[name = tensor<string, []>("q_7_pad_type_0"), val = tensor<string, []>("valid")];
            tensor<int32, [2]> q_7_strides_0 = const()[name = tensor<string, []>("q_7_strides_0"), val = tensor<int32, [2]>([1, 1])];
            tensor<int32, [4]> q_7_pad_0 = const()[name = tensor<string, []>("q_7_pad_0"), val = tensor<int32, [4]>([0, 0, 0, 0])];
            tensor<int32, [2]> q_7_dilations_0 = const()[name = tensor<string, []>("q_7_dilations_0"), val = tensor<int32, [2]>([1, 1])];
            tensor<int32, []> q_7_groups_0 = const()[name = tensor<string, []>("q_7_groups_0"), val = tensor<int32, []>(1)];
            tensor<fp16, [1280, 1280, 1, 1]> var_982_weight_0_to_fp16 = const()[name = tensor<string, []>("op_982_weight_0_to_fp16"), val = tensor<fp16, [1280, 1280, 1, 1]>(BLOBFILE(path = tensor<string, []>("@model_path/weights/weight.bin"), offset = tensor<uint64, []>(132724032)))];
            tensor<fp16, [1280]> var_982_bias_0_to_fp16 = const()[name = tensor<string, []>("op_982_bias_0_to_fp16"), val = tensor<fp16, [1280]>(BLOBFILE(path = tensor<string, []>("@model_path/weights/weight.bin"), offset = tensor<uint64, []>(136000896)))];
            tensor<fp16, [1, 1280, 1, 1500]> var_982_cast_fp16 = conv(bias = var_982_bias_0_to_fp16, dilations = q_7_dilations_0, groups = q_7_groups_0, pad = q_7_pad_0, pad_type = q_7_pad_type_0, strides = q_7_strides_0, weight = var_982_weight_0_to_fp16, x = input_33_cast_fp16)[name = tensor<string, []>("op_982_cast_fp16")];
            tensor<string, []> k_7_pad_type_0 = const()[name = tensor<string, []>("k_7_pad_type_0"), val = tensor<string, []>("valid")];
            tensor<int32, [2]> k_7_strides_0 = const()[name = tensor<string, []>("k_7_strides_0"), val = tensor<int32, [2]>([1, 1])];
            tensor<int32, [4]> k_7_pad_0 = const()[name = tensor<string, []>("k_7_pad_0"), val = tensor<int32, [4]>([0, 0, 0, 0])];
            tensor<int32, [2]> k_7_dilations_0 = const()[name = tensor<string, []>("k_7_dilations_0"), val = tensor<int32, [2]>([1, 1])];
            tensor<int32, []> k_7_groups_0 = const()[name = tensor<string, []>("k_7_groups_0"), val = tensor<int32, []>(1)];
            tensor<fp16, [1280, 1280, 1, 1]> blocks_3_attn_key_weight_to_fp16 = const()[name = tensor<string, []>("blocks_3_attn_key_weight_to_fp16"), val = tensor<fp16, [1280, 1280, 1, 1]>(BLOBFILE(path = tensor<string, []>("@model_path/weights/weight.bin"), offset = tensor<uint64, []>(136003520)))];
            tensor<fp16, [1, 1280, 1, 1500]> k_7_cast_fp16 = conv(dilations = k_7_dilations_0, groups = k_7_groups_0, pad = k_7_pad_0, pad_type = k_7_pad_type_0, strides = k_7_strides_0, weight = blocks_3_attn_key_weight_to_fp16, x = input_33_cast_fp16)[name = tensor<string, []>("k_7_cast_fp16")];
            tensor<string, []> var_980_pad_type_0 = const()[name = tensor<string, []>("op_980_pad_type_0"), val = tensor<string, []>("valid")];
            tensor<int32, [2]> var_980_strides_0 = const()[name = tensor<string, []>("op_980_strides_0"), val = tensor<int32, [2]>([1, 1])];
            tensor<int32, [4]> var_980_pad_0 = const()[name = tensor<string, []>("op_980_pad_0"), val = tensor<int32, [4]>([0, 0, 0, 0])];
            tensor<int32, [2]> var_980_dilations_0 = const()[name = tensor<string, []>("op_980_dilations_0"), val = tensor<int32, [2]>([1, 1])];
            tensor<int32, []> var_980_groups_0 = const()[name = tensor<string, []>("op_980_groups_0"), val = tensor<int32, []>(1)];
            tensor<fp16, [1280, 1280, 1, 1]> blocks_3_attn_value_weight_to_fp16 = const()[name = tensor<string, []>("blocks_3_attn_value_weight_to_fp16"), val = tensor<fp16, [1280, 1280, 1, 1]>(BLOBFILE(path = tensor<string, []>("@model_path/weights/weight.bin"), offset = tensor<uint64, []>(139280384)))];
            tensor<fp16, [1280]> blocks_3_attn_value_bias_to_fp16 = const()[name = tensor<string, []>("blocks_3_attn_value_bias_to_fp16"), val = tensor<fp16, [1280]>(BLOBFILE(path = tensor<string, []>("@model_path/weights/weight.bin"), offset = tensor<uint64, []>(142557248)))];
            tensor<fp16, [1, 1280, 1, 1500]> var_980_cast_fp16 = conv(bias = blocks_3_attn_value_bias_to_fp16, dilations = var_980_dilations_0, groups = var_980_groups_0, pad = var_980_pad_0, pad_type = var_980_pad_type_0, strides = var_980_strides_0, weight = blocks_3_attn_value_weight_to_fp16, x = input_33_cast_fp16)[name = tensor<string, []>("op_980_cast_fp16")];
            tensor<int32, [20]> tile_9 = const()[name = tensor<string, []>("tile_9"), val = tensor<int32, [20]>([64, 64, 64, 64, 64, 64, 64, 64, 64, 64, 64, 64, 64, 64, 64, 64, 64, 64, 64, 64])];
            tensor<int32, []> var_983_axis_0 = const()[name = tensor<string, []>("op_983_axis_0"), val = tensor<int32, []>(1)];
            tensor<fp16, [1, 64, 1, 1500]> var_983_cast_fp16_0, tensor<fp16, [1, 64, 1, 1500]> var_983_cast_fp16_1, tensor<fp16, [1, 64, 1, 1500]> var_983_cast_fp16_2, tensor<fp16, [1, 64, 1, 1500]> var_983_cast_fp16_3, tensor<fp16, [1, 64, 1, 1500]> var_983_cast_fp16_4, tensor<fp16, [1, 64, 1, 1500]> var_983_cast_fp16_5, tensor<fp16, [1, 64, 1, 1500]> var_983_cast_fp16_6, tensor<fp16, [1, 64, 1, 1500]> var_983_cast_fp16_7, tensor<fp16, [1, 64, 1, 1500]> var_983_cast_fp16_8, tensor<fp16, [1, 64, 1, 1500]> var_983_cast_fp16_9, tensor<fp16, [1, 64, 1, 1500]> var_983_cast_fp16_10, tensor<fp16, [1, 64, 1, 1500]> var_983_cast_fp16_11, tensor<fp16, [1, 64, 1, 1500]> var_983_cast_fp16_12, tensor<fp16, [1, 64, 1, 1500]> var_983_cast_fp16_13, tensor<fp16, [1, 64, 1, 1500]> var_983_cast_fp16_14, tensor<fp16, [1, 64, 1, 1500]> var_983_cast_fp16_15, tensor<fp16, [1, 64, 1, 1500]> var_983_cast_fp16_16, tensor<fp16, [1, 64, 1, 1500]> var_983_cast_fp16_17, tensor<fp16, [1, 64, 1, 1500]> var_983_cast_fp16_18, tensor<fp16, [1, 64, 1, 1500]> var_983_cast_fp16_19 = split(axis = var_983_axis_0, split_sizes = tile_9, x = var_982_cast_fp16)[name = tensor<string, []>("op_983_cast_fp16")];
            tensor<int32, [4]> var_1004_perm_0 = const()[name = tensor<string, []>("op_1004_perm_0"), val = tensor<int32, [4]>([0, 3, 2, 1])];
            tensor<int32, [20]> tile_10 = const()[name = tensor<string, []>("tile_10"), val = tensor<int32, [20]>([64, 64, 64, 64, 64, 64, 64, 64, 64, 64, 64, 64, 64, 64, 64, 64, 64, 64, 64, 64])];
            tensor<int32, []> var_1005_axis_0 = const()[name = tensor<string, []>("op_1005_axis_0"), val = tensor<int32, []>(3)];
            tensor<fp16, [1, 1500, 1, 1280]> var_1004_cast_fp16 = transpose(perm = var_1004_perm_0, x = k_7_cast_fp16)[name = tensor<string, []>("transpose_29")];
            tensor<fp16, [1, 1500, 1, 64]> var_1005_cast_fp16_0, tensor<fp16, [1, 1500, 1, 64]> var_1005_cast_fp16_1, tensor<fp16, [1, 1500, 1, 64]> var_1005_cast_fp16_2, tensor<fp16, [1, 1500, 1, 64]> var_1005_cast_fp16_3, tensor<fp16, [1, 1500, 1, 64]> var_1005_cast_fp16_4, tensor<fp16, [1, 1500, 1, 64]> var_1005_cast_fp16_5, tensor<fp16, [1, 1500, 1, 64]> var_1005_cast_fp16_6, tensor<fp16, [1, 1500, 1, 64]> var_1005_cast_fp16_7, tensor<fp16, [1, 1500, 1, 64]> var_1005_cast_fp16_8, tensor<fp16, [1, 1500, 1, 64]> var_1005_cast_fp16_9, tensor<fp16, [1, 1500, 1, 64]> var_1005_cast_fp16_10, tensor<fp16, [1, 1500, 1, 64]> var_1005_cast_fp16_11, tensor<fp16, [1, 1500, 1, 64]> var_1005_cast_fp16_12, tensor<fp16, [1, 1500, 1, 64]> var_1005_cast_fp16_13, tensor<fp16, [1, 1500, 1, 64]> var_1005_cast_fp16_14, tensor<fp16, [1, 1500, 1, 64]> var_1005_cast_fp16_15, tensor<fp16, [1, 1500, 1, 64]> var_1005_cast_fp16_16, tensor<fp16, [1, 1500, 1, 64]> var_1005_cast_fp16_17, tensor<fp16, [1, 1500, 1, 64]> var_1005_cast_fp16_18, tensor<fp16, [1, 1500, 1, 64]> var_1005_cast_fp16_19 = split(axis = var_1005_axis_0, split_sizes = tile_10, x = var_1004_cast_fp16)[name = tensor<string, []>("op_1005_cast_fp16")];
            tensor<int32, [20]> tile_11 = const()[name = tensor<string, []>("tile_11"), val = tensor<int32, [20]>([64, 64, 64, 64, 64, 64, 64, 64, 64, 64, 64, 64, 64, 64, 64, 64, 64, 64, 64, 64])];
            tensor<int32, []> var_1026_axis_0 = const()[name = tensor<string, []>("op_1026_axis_0"), val = tensor<int32, []>(1)];
            tensor<fp16, [1, 64, 1, 1500]> var_1026_cast_fp16_0, tensor<fp16, [1, 64, 1, 1500]> var_1026_cast_fp16_1, tensor<fp16, [1, 64, 1, 1500]> var_1026_cast_fp16_2, tensor<fp16, [1, 64, 1, 1500]> var_1026_cast_fp16_3, tensor<fp16, [1, 64, 1, 1500]> var_1026_cast_fp16_4, tensor<fp16, [1, 64, 1, 1500]> var_1026_cast_fp16_5, tensor<fp16, [1, 64, 1, 1500]> var_1026_cast_fp16_6, tensor<fp16, [1, 64, 1, 1500]> var_1026_cast_fp16_7, tensor<fp16, [1, 64, 1, 1500]> var_1026_cast_fp16_8, tensor<fp16, [1, 64, 1, 1500]> var_1026_cast_fp16_9, tensor<fp16, [1, 64, 1, 1500]> var_1026_cast_fp16_10, tensor<fp16, [1, 64, 1, 1500]> var_1026_cast_fp16_11, tensor<fp16, [1, 64, 1, 1500]> var_1026_cast_fp16_12, tensor<fp16, [1, 64, 1, 1500]> var_1026_cast_fp16_13, tensor<fp16, [1, 64, 1, 1500]> var_1026_cast_fp16_14, tensor<fp16, [1, 64, 1, 1500]> var_1026_cast_fp16_15, tensor<fp16, [1, 64, 1, 1500]> var_1026_cast_fp16_16, tensor<fp16, [1, 64, 1, 1500]> var_1026_cast_fp16_17, tensor<fp16, [1, 64, 1, 1500]> var_1026_cast_fp16_18, tensor<fp16, [1, 64, 1, 1500]> var_1026_cast_fp16_19 = split(axis = var_1026_axis_0, split_sizes = tile_11, x = var_980_cast_fp16)[name = tensor<string, []>("op_1026_cast_fp16")];
            tensor<string, []> aw_121_equation_0 = const()[name = tensor<string, []>("aw_121_equation_0"), val = tensor<string, []>("bkhc,bchq->bkhq")];
            tensor<fp16, [1, 1500, 1, 1500]> aw_121_cast_fp16 = einsum(equation = aw_121_equation_0, values = (var_1005_cast_fp16_0, var_983_cast_fp16_0))[name = tensor<string, []>("aw_121_cast_fp16")];
            tensor<string, []> aw_123_equation_0 = const()[name = tensor<string, []>("aw_123_equation_0"), val = tensor<string, []>("bkhc,bchq->bkhq")];
            tensor<fp16, [1, 1500, 1, 1500]> aw_123_cast_fp16 = einsum(equation = aw_123_equation_0, values = (var_1005_cast_fp16_1, var_983_cast_fp16_1))[name = tensor<string, []>("aw_123_cast_fp16")];
            tensor<string, []> aw_125_equation_0 = const()[name = tensor<string, []>("aw_125_equation_0"), val = tensor<string, []>("bkhc,bchq->bkhq")];
            tensor<fp16, [1, 1500, 1, 1500]> aw_125_cast_fp16 = einsum(equation = aw_125_equation_0, values = (var_1005_cast_fp16_2, var_983_cast_fp16_2))[name = tensor<string, []>("aw_125_cast_fp16")];
            tensor<string, []> aw_127_equation_0 = const()[name = tensor<string, []>("aw_127_equation_0"), val = tensor<string, []>("bkhc,bchq->bkhq")];
            tensor<fp16, [1, 1500, 1, 1500]> aw_127_cast_fp16 = einsum(equation = aw_127_equation_0, values = (var_1005_cast_fp16_3, var_983_cast_fp16_3))[name = tensor<string, []>("aw_127_cast_fp16")];
            tensor<string, []> aw_129_equation_0 = const()[name = tensor<string, []>("aw_129_equation_0"), val = tensor<string, []>("bkhc,bchq->bkhq")];
            tensor<fp16, [1, 1500, 1, 1500]> aw_129_cast_fp16 = einsum(equation = aw_129_equation_0, values = (var_1005_cast_fp16_4, var_983_cast_fp16_4))[name = tensor<string, []>("aw_129_cast_fp16")];
            tensor<string, []> aw_131_equation_0 = const()[name = tensor<string, []>("aw_131_equation_0"), val = tensor<string, []>("bkhc,bchq->bkhq")];
            tensor<fp16, [1, 1500, 1, 1500]> aw_131_cast_fp16 = einsum(equation = aw_131_equation_0, values = (var_1005_cast_fp16_5, var_983_cast_fp16_5))[name = tensor<string, []>("aw_131_cast_fp16")];
            tensor<string, []> aw_133_equation_0 = const()[name = tensor<string, []>("aw_133_equation_0"), val = tensor<string, []>("bkhc,bchq->bkhq")];
            tensor<fp16, [1, 1500, 1, 1500]> aw_133_cast_fp16 = einsum(equation = aw_133_equation_0, values = (var_1005_cast_fp16_6, var_983_cast_fp16_6))[name = tensor<string, []>("aw_133_cast_fp16")];
            tensor<string, []> aw_135_equation_0 = const()[name = tensor<string, []>("aw_135_equation_0"), val = tensor<string, []>("bkhc,bchq->bkhq")];
            tensor<fp16, [1, 1500, 1, 1500]> aw_135_cast_fp16 = einsum(equation = aw_135_equation_0, values = (var_1005_cast_fp16_7, var_983_cast_fp16_7))[name = tensor<string, []>("aw_135_cast_fp16")];
            tensor<string, []> aw_137_equation_0 = const()[name = tensor<string, []>("aw_137_equation_0"), val = tensor<string, []>("bkhc,bchq->bkhq")];
            tensor<fp16, [1, 1500, 1, 1500]> aw_137_cast_fp16 = einsum(equation = aw_137_equation_0, values = (var_1005_cast_fp16_8, var_983_cast_fp16_8))[name = tensor<string, []>("aw_137_cast_fp16")];
            tensor<string, []> aw_139_equation_0 = const()[name = tensor<string, []>("aw_139_equation_0"), val = tensor<string, []>("bkhc,bchq->bkhq")];
            tensor<fp16, [1, 1500, 1, 1500]> aw_139_cast_fp16 = einsum(equation = aw_139_equation_0, values = (var_1005_cast_fp16_9, var_983_cast_fp16_9))[name = tensor<string, []>("aw_139_cast_fp16")];
            tensor<string, []> aw_141_equation_0 = const()[name = tensor<string, []>("aw_141_equation_0"), val = tensor<string, []>("bkhc,bchq->bkhq")];
            tensor<fp16, [1, 1500, 1, 1500]> aw_141_cast_fp16 = einsum(equation = aw_141_equation_0, values = (var_1005_cast_fp16_10, var_983_cast_fp16_10))[name = tensor<string, []>("aw_141_cast_fp16")];
            tensor<string, []> aw_143_equation_0 = const()[name = tensor<string, []>("aw_143_equation_0"), val = tensor<string, []>("bkhc,bchq->bkhq")];
            tensor<fp16, [1, 1500, 1, 1500]> aw_143_cast_fp16 = einsum(equation = aw_143_equation_0, values = (var_1005_cast_fp16_11, var_983_cast_fp16_11))[name = tensor<string, []>("aw_143_cast_fp16")];
            tensor<string, []> aw_145_equation_0 = const()[name = tensor<string, []>("aw_145_equation_0"), val = tensor<string, []>("bkhc,bchq->bkhq")];
            tensor<fp16, [1, 1500, 1, 1500]> aw_145_cast_fp16 = einsum(equation = aw_145_equation_0, values = (var_1005_cast_fp16_12, var_983_cast_fp16_12))[name = tensor<string, []>("aw_145_cast_fp16")];
            tensor<string, []> aw_147_equation_0 = const()[name = tensor<string, []>("aw_147_equation_0"), val = tensor<string, []>("bkhc,bchq->bkhq")];
            tensor<fp16, [1, 1500, 1, 1500]> aw_147_cast_fp16 = einsum(equation = aw_147_equation_0, values = (var_1005_cast_fp16_13, var_983_cast_fp16_13))[name = tensor<string, []>("aw_147_cast_fp16")];
            tensor<string, []> aw_149_equation_0 = const()[name = tensor<string, []>("aw_149_equation_0"), val = tensor<string, []>("bkhc,bchq->bkhq")];
            tensor<fp16, [1, 1500, 1, 1500]> aw_149_cast_fp16 = einsum(equation = aw_149_equation_0, values = (var_1005_cast_fp16_14, var_983_cast_fp16_14))[name = tensor<string, []>("aw_149_cast_fp16")];
            tensor<string, []> aw_151_equation_0 = const()[name = tensor<string, []>("aw_151_equation_0"), val = tensor<string, []>("bkhc,bchq->bkhq")];
            tensor<fp16, [1, 1500, 1, 1500]> aw_151_cast_fp16 = einsum(equation = aw_151_equation_0, values = (var_1005_cast_fp16_15, var_983_cast_fp16_15))[name = tensor<string, []>("aw_151_cast_fp16")];
            tensor<string, []> aw_153_equation_0 = const()[name = tensor<string, []>("aw_153_equation_0"), val = tensor<string, []>("bkhc,bchq->bkhq")];
            tensor<fp16, [1, 1500, 1, 1500]> aw_153_cast_fp16 = einsum(equation = aw_153_equation_0, values = (var_1005_cast_fp16_16, var_983_cast_fp16_16))[name = tensor<string, []>("aw_153_cast_fp16")];
            tensor<string, []> aw_155_equation_0 = const()[name = tensor<string, []>("aw_155_equation_0"), val = tensor<string, []>("bkhc,bchq->bkhq")];
            tensor<fp16, [1, 1500, 1, 1500]> aw_155_cast_fp16 = einsum(equation = aw_155_equation_0, values = (var_1005_cast_fp16_17, var_983_cast_fp16_17))[name = tensor<string, []>("aw_155_cast_fp16")];
            tensor<string, []> aw_157_equation_0 = const()[name = tensor<string, []>("aw_157_equation_0"), val = tensor<string, []>("bkhc,bchq->bkhq")];
            tensor<fp16, [1, 1500, 1, 1500]> aw_157_cast_fp16 = einsum(equation = aw_157_equation_0, values = (var_1005_cast_fp16_18, var_983_cast_fp16_18))[name = tensor<string, []>("aw_157_cast_fp16")];
            tensor<string, []> aw_159_equation_0 = const()[name = tensor<string, []>("aw_159_equation_0"), val = tensor<string, []>("bkhc,bchq->bkhq")];
            tensor<fp16, [1, 1500, 1, 1500]> aw_159_cast_fp16 = einsum(equation = aw_159_equation_0, values = (var_1005_cast_fp16_19, var_983_cast_fp16_19))[name = tensor<string, []>("aw_159_cast_fp16")];
            tensor<fp16, [1, 1500, 1, 1500]> var_1087_cast_fp16 = softmax(axis = var_931, x = aw_121_cast_fp16)[name = tensor<string, []>("op_1087_cast_fp16")];
            tensor<fp16, [1, 1500, 1, 1500]> var_1088_cast_fp16 = softmax(axis = var_931, x = aw_123_cast_fp16)[name = tensor<string, []>("op_1088_cast_fp16")];
            tensor<fp16, [1, 1500, 1, 1500]> var_1089_cast_fp16 = softmax(axis = var_931, x = aw_125_cast_fp16)[name = tensor<string, []>("op_1089_cast_fp16")];
            tensor<fp16, [1, 1500, 1, 1500]> var_1090_cast_fp16 = softmax(axis = var_931, x = aw_127_cast_fp16)[name = tensor<string, []>("op_1090_cast_fp16")];
            tensor<fp16, [1, 1500, 1, 1500]> var_1091_cast_fp16 = softmax(axis = var_931, x = aw_129_cast_fp16)[name = tensor<string, []>("op_1091_cast_fp16")];
            tensor<fp16, [1, 1500, 1, 1500]> var_1092_cast_fp16 = softmax(axis = var_931, x = aw_131_cast_fp16)[name = tensor<string, []>("op_1092_cast_fp16")];
            tensor<fp16, [1, 1500, 1, 1500]> var_1093_cast_fp16 = softmax(axis = var_931, x = aw_133_cast_fp16)[name = tensor<string, []>("op_1093_cast_fp16")];
            tensor<fp16, [1, 1500, 1, 1500]> var_1094_cast_fp16 = softmax(axis = var_931, x = aw_135_cast_fp16)[name = tensor<string, []>("op_1094_cast_fp16")];
            tensor<fp16, [1, 1500, 1, 1500]> var_1095_cast_fp16 = softmax(axis = var_931, x = aw_137_cast_fp16)[name = tensor<string, []>("op_1095_cast_fp16")];
            tensor<fp16, [1, 1500, 1, 1500]> var_1096_cast_fp16 = softmax(axis = var_931, x = aw_139_cast_fp16)[name = tensor<string, []>("op_1096_cast_fp16")];
            tensor<fp16, [1, 1500, 1, 1500]> var_1097_cast_fp16 = softmax(axis = var_931, x = aw_141_cast_fp16)[name = tensor<string, []>("op_1097_cast_fp16")];
            tensor<fp16, [1, 1500, 1, 1500]> var_1098_cast_fp16 = softmax(axis = var_931, x = aw_143_cast_fp16)[name = tensor<string, []>("op_1098_cast_fp16")];
            tensor<fp16, [1, 1500, 1, 1500]> var_1099_cast_fp16 = softmax(axis = var_931, x = aw_145_cast_fp16)[name = tensor<string, []>("op_1099_cast_fp16")];
            tensor<fp16, [1, 1500, 1, 1500]> var_1100_cast_fp16 = softmax(axis = var_931, x = aw_147_cast_fp16)[name = tensor<string, []>("op_1100_cast_fp16")];
            tensor<fp16, [1, 1500, 1, 1500]> var_1101_cast_fp16 = softmax(axis = var_931, x = aw_149_cast_fp16)[name = tensor<string, []>("op_1101_cast_fp16")];
            tensor<fp16, [1, 1500, 1, 1500]> var_1102_cast_fp16 = softmax(axis = var_931, x = aw_151_cast_fp16)[name = tensor<string, []>("op_1102_cast_fp16")];
            tensor<fp16, [1, 1500, 1, 1500]> var_1103_cast_fp16 = softmax(axis = var_931, x = aw_153_cast_fp16)[name = tensor<string, []>("op_1103_cast_fp16")];
            tensor<fp16, [1, 1500, 1, 1500]> var_1104_cast_fp16 = softmax(axis = var_931, x = aw_155_cast_fp16)[name = tensor<string, []>("op_1104_cast_fp16")];
            tensor<fp16, [1, 1500, 1, 1500]> var_1105_cast_fp16 = softmax(axis = var_931, x = aw_157_cast_fp16)[name = tensor<string, []>("op_1105_cast_fp16")];
            tensor<fp16, [1, 1500, 1, 1500]> var_1106_cast_fp16 = softmax(axis = var_931, x = aw_159_cast_fp16)[name = tensor<string, []>("op_1106_cast_fp16")];
            tensor<string, []> var_1108_equation_0 = const()[name = tensor<string, []>("op_1108_equation_0"), val = tensor<string, []>("bchk,bkhq->bchq")];
            tensor<fp16, [1, 64, 1, 1500]> var_1108_cast_fp16 = einsum(equation = var_1108_equation_0, values = (var_1026_cast_fp16_0, var_1087_cast_fp16))[name = tensor<string, []>("op_1108_cast_fp16")];
            tensor<string, []> var_1110_equation_0 = const()[name = tensor<string, []>("op_1110_equation_0"), val = tensor<string, []>("bchk,bkhq->bchq")];
            tensor<fp16, [1, 64, 1, 1500]> var_1110_cast_fp16 = einsum(equation = var_1110_equation_0, values = (var_1026_cast_fp16_1, var_1088_cast_fp16))[name = tensor<string, []>("op_1110_cast_fp16")];
            tensor<string, []> var_1112_equation_0 = const()[name = tensor<string, []>("op_1112_equation_0"), val = tensor<string, []>("bchk,bkhq->bchq")];
            tensor<fp16, [1, 64, 1, 1500]> var_1112_cast_fp16 = einsum(equation = var_1112_equation_0, values = (var_1026_cast_fp16_2, var_1089_cast_fp16))[name = tensor<string, []>("op_1112_cast_fp16")];
            tensor<string, []> var_1114_equation_0 = const()[name = tensor<string, []>("op_1114_equation_0"), val = tensor<string, []>("bchk,bkhq->bchq")];
            tensor<fp16, [1, 64, 1, 1500]> var_1114_cast_fp16 = einsum(equation = var_1114_equation_0, values = (var_1026_cast_fp16_3, var_1090_cast_fp16))[name = tensor<string, []>("op_1114_cast_fp16")];
            tensor<string, []> var_1116_equation_0 = const()[name = tensor<string, []>("op_1116_equation_0"), val = tensor<string, []>("bchk,bkhq->bchq")];
            tensor<fp16, [1, 64, 1, 1500]> var_1116_cast_fp16 = einsum(equation = var_1116_equation_0, values = (var_1026_cast_fp16_4, var_1091_cast_fp16))[name = tensor<string, []>("op_1116_cast_fp16")];
            tensor<string, []> var_1118_equation_0 = const()[name = tensor<string, []>("op_1118_equation_0"), val = tensor<string, []>("bchk,bkhq->bchq")];
            tensor<fp16, [1, 64, 1, 1500]> var_1118_cast_fp16 = einsum(equation = var_1118_equation_0, values = (var_1026_cast_fp16_5, var_1092_cast_fp16))[name = tensor<string, []>("op_1118_cast_fp16")];
            tensor<string, []> var_1120_equation_0 = const()[name = tensor<string, []>("op_1120_equation_0"), val = tensor<string, []>("bchk,bkhq->bchq")];
            tensor<fp16, [1, 64, 1, 1500]> var_1120_cast_fp16 = einsum(equation = var_1120_equation_0, values = (var_1026_cast_fp16_6, var_1093_cast_fp16))[name = tensor<string, []>("op_1120_cast_fp16")];
            tensor<string, []> var_1122_equation_0 = const()[name = tensor<string, []>("op_1122_equation_0"), val = tensor<string, []>("bchk,bkhq->bchq")];
            tensor<fp16, [1, 64, 1, 1500]> var_1122_cast_fp16 = einsum(equation = var_1122_equation_0, values = (var_1026_cast_fp16_7, var_1094_cast_fp16))[name = tensor<string, []>("op_1122_cast_fp16")];
            tensor<string, []> var_1124_equation_0 = const()[name = tensor<string, []>("op_1124_equation_0"), val = tensor<string, []>("bchk,bkhq->bchq")];
            tensor<fp16, [1, 64, 1, 1500]> var_1124_cast_fp16 = einsum(equation = var_1124_equation_0, values = (var_1026_cast_fp16_8, var_1095_cast_fp16))[name = tensor<string, []>("op_1124_cast_fp16")];
            tensor<string, []> var_1126_equation_0 = const()[name = tensor<string, []>("op_1126_equation_0"), val = tensor<string, []>("bchk,bkhq->bchq")];
            tensor<fp16, [1, 64, 1, 1500]> var_1126_cast_fp16 = einsum(equation = var_1126_equation_0, values = (var_1026_cast_fp16_9, var_1096_cast_fp16))[name = tensor<string, []>("op_1126_cast_fp16")];
            tensor<string, []> var_1128_equation_0 = const()[name = tensor<string, []>("op_1128_equation_0"), val = tensor<string, []>("bchk,bkhq->bchq")];
            tensor<fp16, [1, 64, 1, 1500]> var_1128_cast_fp16 = einsum(equation = var_1128_equation_0, values = (var_1026_cast_fp16_10, var_1097_cast_fp16))[name = tensor<string, []>("op_1128_cast_fp16")];
            tensor<string, []> var_1130_equation_0 = const()[name = tensor<string, []>("op_1130_equation_0"), val = tensor<string, []>("bchk,bkhq->bchq")];
            tensor<fp16, [1, 64, 1, 1500]> var_1130_cast_fp16 = einsum(equation = var_1130_equation_0, values = (var_1026_cast_fp16_11, var_1098_cast_fp16))[name = tensor<string, []>("op_1130_cast_fp16")];
            tensor<string, []> var_1132_equation_0 = const()[name = tensor<string, []>("op_1132_equation_0"), val = tensor<string, []>("bchk,bkhq->bchq")];
            tensor<fp16, [1, 64, 1, 1500]> var_1132_cast_fp16 = einsum(equation = var_1132_equation_0, values = (var_1026_cast_fp16_12, var_1099_cast_fp16))[name = tensor<string, []>("op_1132_cast_fp16")];
            tensor<string, []> var_1134_equation_0 = const()[name = tensor<string, []>("op_1134_equation_0"), val = tensor<string, []>("bchk,bkhq->bchq")];
            tensor<fp16, [1, 64, 1, 1500]> var_1134_cast_fp16 = einsum(equation = var_1134_equation_0, values = (var_1026_cast_fp16_13, var_1100_cast_fp16))[name = tensor<string, []>("op_1134_cast_fp16")];
            tensor<string, []> var_1136_equation_0 = const()[name = tensor<string, []>("op_1136_equation_0"), val = tensor<string, []>("bchk,bkhq->bchq")];
            tensor<fp16, [1, 64, 1, 1500]> var_1136_cast_fp16 = einsum(equation = var_1136_equation_0, values = (var_1026_cast_fp16_14, var_1101_cast_fp16))[name = tensor<string, []>("op_1136_cast_fp16")];
            tensor<string, []> var_1138_equation_0 = const()[name = tensor<string, []>("op_1138_equation_0"), val = tensor<string, []>("bchk,bkhq->bchq")];
            tensor<fp16, [1, 64, 1, 1500]> var_1138_cast_fp16 = einsum(equation = var_1138_equation_0, values = (var_1026_cast_fp16_15, var_1102_cast_fp16))[name = tensor<string, []>("op_1138_cast_fp16")];
            tensor<string, []> var_1140_equation_0 = const()[name = tensor<string, []>("op_1140_equation_0"), val = tensor<string, []>("bchk,bkhq->bchq")];
            tensor<fp16, [1, 64, 1, 1500]> var_1140_cast_fp16 = einsum(equation = var_1140_equation_0, values = (var_1026_cast_fp16_16, var_1103_cast_fp16))[name = tensor<string, []>("op_1140_cast_fp16")];
            tensor<string, []> var_1142_equation_0 = const()[name = tensor<string, []>("op_1142_equation_0"), val = tensor<string, []>("bchk,bkhq->bchq")];
            tensor<fp16, [1, 64, 1, 1500]> var_1142_cast_fp16 = einsum(equation = var_1142_equation_0, values = (var_1026_cast_fp16_17, var_1104_cast_fp16))[name = tensor<string, []>("op_1142_cast_fp16")];
            tensor<string, []> var_1144_equation_0 = const()[name = tensor<string, []>("op_1144_equation_0"), val = tensor<string, []>("bchk,bkhq->bchq")];
            tensor<fp16, [1, 64, 1, 1500]> var_1144_cast_fp16 = einsum(equation = var_1144_equation_0, values = (var_1026_cast_fp16_18, var_1105_cast_fp16))[name = tensor<string, []>("op_1144_cast_fp16")];
            tensor<string, []> var_1146_equation_0 = const()[name = tensor<string, []>("op_1146_equation_0"), val = tensor<string, []>("bchk,bkhq->bchq")];
            tensor<fp16, [1, 64, 1, 1500]> var_1146_cast_fp16 = einsum(equation = var_1146_equation_0, values = (var_1026_cast_fp16_19, var_1106_cast_fp16))[name = tensor<string, []>("op_1146_cast_fp16")];
            tensor<bool, []> input_35_interleave_0 = const()[name = tensor<string, []>("input_35_interleave_0"), val = tensor<bool, []>(false)];
            tensor<fp16, [1, 1280, 1, 1500]> input_35_cast_fp16 = concat(axis = var_931, interleave = input_35_interleave_0, values = (var_1108_cast_fp16, var_1110_cast_fp16, var_1112_cast_fp16, var_1114_cast_fp16, var_1116_cast_fp16, var_1118_cast_fp16, var_1120_cast_fp16, var_1122_cast_fp16, var_1124_cast_fp16, var_1126_cast_fp16, var_1128_cast_fp16, var_1130_cast_fp16, var_1132_cast_fp16, var_1134_cast_fp16, var_1136_cast_fp16, var_1138_cast_fp16, var_1140_cast_fp16, var_1142_cast_fp16, var_1144_cast_fp16, var_1146_cast_fp16))[name = tensor<string, []>("input_35_cast_fp16")];
            tensor<string, []> var_1155_pad_type_0 = const()[name = tensor<string, []>("op_1155_pad_type_0"), val = tensor<string, []>("valid")];
            tensor<int32, [2]> var_1155_strides_0 = const()[name = tensor<string, []>("op_1155_strides_0"), val = tensor<int32, [2]>([1, 1])];
            tensor<int32, [4]> var_1155_pad_0 = const()[name = tensor<string, []>("op_1155_pad_0"), val = tensor<int32, [4]>([0, 0, 0, 0])];
            tensor<int32, [2]> var_1155_dilations_0 = const()[name = tensor<string, []>("op_1155_dilations_0"), val = tensor<int32, [2]>([1, 1])];
            tensor<int32, []> var_1155_groups_0 = const()[name = tensor<string, []>("op_1155_groups_0"), val = tensor<int32, []>(1)];
            tensor<fp16, [1280, 1280, 1, 1]> blocks_3_attn_out_weight_to_fp16 = const()[name = tensor<string, []>("blocks_3_attn_out_weight_to_fp16"), val = tensor<fp16, [1280, 1280, 1, 1]>(BLOBFILE(path = tensor<string, []>("@model_path/weights/weight.bin"), offset = tensor<uint64, []>(142559872)))];
            tensor<fp16, [1280]> blocks_3_attn_out_bias_to_fp16 = const()[name = tensor<string, []>("blocks_3_attn_out_bias_to_fp16"), val = tensor<fp16, [1280]>(BLOBFILE(path = tensor<string, []>("@model_path/weights/weight.bin"), offset = tensor<uint64, []>(145836736)))];
            tensor<fp16, [1, 1280, 1, 1500]> var_1155_cast_fp16 = conv(bias = blocks_3_attn_out_bias_to_fp16, dilations = var_1155_dilations_0, groups = var_1155_groups_0, pad = var_1155_pad_0, pad_type = var_1155_pad_type_0, strides = var_1155_strides_0, weight = blocks_3_attn_out_weight_to_fp16, x = input_35_cast_fp16)[name = tensor<string, []>("op_1155_cast_fp16")];
            tensor<fp16, [1, 1280, 1, 1500]> inputs_15_cast_fp16 = add(x = inputs_13_cast_fp16, y = var_1155_cast_fp16)[name = tensor<string, []>("inputs_15_cast_fp16")];
            tensor<int32, [1]> input_37_axes_0 = const()[name = tensor<string, []>("input_37_axes_0"), val = tensor<int32, [1]>([1])];
            tensor<fp16, [1280]> input_37_gamma_0_to_fp16 = const()[name = tensor<string, []>("input_37_gamma_0_to_fp16"), val = tensor<fp16, [1280]>(BLOBFILE(path = tensor<string, []>("@model_path/weights/weight.bin"), offset = tensor<uint64, []>(145839360)))];
            tensor<fp16, [1280]> input_37_beta_0_to_fp16 = const()[name = tensor<string, []>("input_37_beta_0_to_fp16"), val = tensor<fp16, [1280]>(BLOBFILE(path = tensor<string, []>("@model_path/weights/weight.bin"), offset = tensor<uint64, []>(145841984)))];
            tensor<fp16, []> var_1165_to_fp16 = const()[name = tensor<string, []>("op_1165_to_fp16"), val = tensor<fp16, []>(0x1.5p-17)];
            tensor<fp16, [1, 1280, 1, 1500]> input_37_cast_fp16 = layer_norm(axes = input_37_axes_0, beta = input_37_beta_0_to_fp16, epsilon = var_1165_to_fp16, gamma = input_37_gamma_0_to_fp16, x = inputs_15_cast_fp16)[name = tensor<string, []>("input_37_cast_fp16")];
            tensor<string, []> input_39_pad_type_0 = const()[name = tensor<string, []>("input_39_pad_type_0"), val = tensor<string, []>("valid")];
            tensor<int32, [2]> input_39_strides_0 = const()[name = tensor<string, []>("input_39_strides_0"), val = tensor<int32, [2]>([1, 1])];
            tensor<int32, [4]> input_39_pad_0 = const()[name = tensor<string, []>("input_39_pad_0"), val = tensor<int32, [4]>([0, 0, 0, 0])];
            tensor<int32, [2]> input_39_dilations_0 = const()[name = tensor<string, []>("input_39_dilations_0"), val = tensor<int32, [2]>([1, 1])];
            tensor<int32, []> input_39_groups_0 = const()[name = tensor<string, []>("input_39_groups_0"), val = tensor<int32, []>(1)];
            tensor<fp16, [5120, 1280, 1, 1]> blocks_3_mlp_0_weight_to_fp16 = const()[name = tensor<string, []>("blocks_3_mlp_0_weight_to_fp16"), val = tensor<fp16, [5120, 1280, 1, 1]>(BLOBFILE(path = tensor<string, []>("@model_path/weights/weight.bin"), offset = tensor<uint64, []>(145844608)))];
            tensor<fp16, [5120]> blocks_3_mlp_0_bias_to_fp16 = const()[name = tensor<string, []>("blocks_3_mlp_0_bias_to_fp16"), val = tensor<fp16, [5120]>(BLOBFILE(path = tensor<string, []>("@model_path/weights/weight.bin"), offset = tensor<uint64, []>(158951872)))];
            tensor<fp16, [1, 5120, 1, 1500]> input_39_cast_fp16 = conv(bias = blocks_3_mlp_0_bias_to_fp16, dilations = input_39_dilations_0, groups = input_39_groups_0, pad = input_39_pad_0, pad_type = input_39_pad_type_0, strides = input_39_strides_0, weight = blocks_3_mlp_0_weight_to_fp16, x = input_37_cast_fp16)[name = tensor<string, []>("input_39_cast_fp16")];
            tensor<string, []> input_41_mode_0 = const()[name = tensor<string, []>("input_41_mode_0"), val = tensor<string, []>("EXACT")];
            tensor<fp16, [1, 5120, 1, 1500]> input_41_cast_fp16 = gelu(mode = input_41_mode_0, x = input_39_cast_fp16)[name = tensor<string, []>("input_41_cast_fp16")];
            tensor<string, []> var_1191_pad_type_0 = const()[name = tensor<string, []>("op_1191_pad_type_0"), val = tensor<string, []>("valid")];
            tensor<int32, [2]> var_1191_strides_0 = const()[name = tensor<string, []>("op_1191_strides_0"), val = tensor<int32, [2]>([1, 1])];
            tensor<int32, [4]> var_1191_pad_0 = const()[name = tensor<string, []>("op_1191_pad_0"), val = tensor<int32, [4]>([0, 0, 0, 0])];
            tensor<int32, [2]> var_1191_dilations_0 = const()[name = tensor<string, []>("op_1191_dilations_0"), val = tensor<int32, [2]>([1, 1])];
            tensor<int32, []> var_1191_groups_0 = const()[name = tensor<string, []>("op_1191_groups_0"), val = tensor<int32, []>(1)];
            tensor<fp16, [1280, 5120, 1, 1]> blocks_3_mlp_2_weight_to_fp16 = const()[name = tensor<string, []>("blocks_3_mlp_2_weight_to_fp16"), val = tensor<fp16, [1280, 5120, 1, 1]>(BLOBFILE(path = tensor<string, []>("@model_path/weights/weight.bin"), offset = tensor<uint64, []>(158962176)))];
            tensor<fp16, [1280]> blocks_3_mlp_2_bias_to_fp16 = const()[name = tensor<string, []>("blocks_3_mlp_2_bias_to_fp16"), val = tensor<fp16, [1280]>(BLOBFILE(path = tensor<string, []>("@model_path/weights/weight.bin"), offset = tensor<uint64, []>(172069440)))];
            tensor<fp16, [1, 1280, 1, 1500]> var_1191_cast_fp16 = conv(bias = blocks_3_mlp_2_bias_to_fp16, dilations = var_1191_dilations_0, groups = var_1191_groups_0, pad = var_1191_pad_0, pad_type = var_1191_pad_type_0, strides = var_1191_strides_0, weight = blocks_3_mlp_2_weight_to_fp16, x = input_41_cast_fp16)[name = tensor<string, []>("op_1191_cast_fp16")];
            tensor<fp16, [1, 1280, 1, 1500]> inputs_17_cast_fp16 = add(x = inputs_15_cast_fp16, y = var_1191_cast_fp16)[name = tensor<string, []>("inputs_17_cast_fp16")];
            tensor<int32, []> var_1200 = const()[name = tensor<string, []>("op_1200"), val = tensor<int32, []>(1)];
            tensor<int32, [1]> input_43_axes_0 = const()[name = tensor<string, []>("input_43_axes_0"), val = tensor<int32, [1]>([1])];
            tensor<fp16, [1280]> input_43_gamma_0_to_fp16 = const()[name = tensor<string, []>("input_43_gamma_0_to_fp16"), val = tensor<fp16, [1280]>(BLOBFILE(path = tensor<string, []>("@model_path/weights/weight.bin"), offset = tensor<uint64, []>(172072064)))];
            tensor<fp16, [1280]> input_43_beta_0_to_fp16 = const()[name = tensor<string, []>("input_43_beta_0_to_fp16"), val = tensor<fp16, [1280]>(BLOBFILE(path = tensor<string, []>("@model_path/weights/weight.bin"), offset = tensor<uint64, []>(172074688)))];
            tensor<fp16, []> var_1216_to_fp16 = const()[name = tensor<string, []>("op_1216_to_fp16"), val = tensor<fp16, []>(0x1.5p-17)];
            tensor<fp16, [1, 1280, 1, 1500]> input_43_cast_fp16 = layer_norm(axes = input_43_axes_0, beta = input_43_beta_0_to_fp16, epsilon = var_1216_to_fp16, gamma = input_43_gamma_0_to_fp16, x = inputs_17_cast_fp16)[name = tensor<string, []>("input_43_cast_fp16")];
            tensor<string, []> q_9_pad_type_0 = const()[name = tensor<string, []>("q_9_pad_type_0"), val = tensor<string, []>("valid")];
            tensor<int32, [2]> q_9_strides_0 = const()[name = tensor<string, []>("q_9_strides_0"), val = tensor<int32, [2]>([1, 1])];
            tensor<int32, [4]> q_9_pad_0 = const()[name = tensor<string, []>("q_9_pad_0"), val = tensor<int32, [4]>([0, 0, 0, 0])];
            tensor<int32, [2]> q_9_dilations_0 = const()[name = tensor<string, []>("q_9_dilations_0"), val = tensor<int32, [2]>([1, 1])];
            tensor<int32, []> q_9_groups_0 = const()[name = tensor<string, []>("q_9_groups_0"), val = tensor<int32, []>(1)];
            tensor<fp16, [1280, 1280, 1, 1]> var_1251_weight_0_to_fp16 = const()[name = tensor<string, []>("op_1251_weight_0_to_fp16"), val = tensor<fp16, [1280, 1280, 1, 1]>(BLOBFILE(path = tensor<string, []>("@model_path/weights/weight.bin"), offset = tensor<uint64, []>(172077312)))];
            tensor<fp16, [1280]> var_1251_bias_0_to_fp16 = const()[name = tensor<string, []>("op_1251_bias_0_to_fp16"), val = tensor<fp16, [1280]>(BLOBFILE(path = tensor<string, []>("@model_path/weights/weight.bin"), offset = tensor<uint64, []>(175354176)))];
            tensor<fp16, [1, 1280, 1, 1500]> var_1251_cast_fp16 = conv(bias = var_1251_bias_0_to_fp16, dilations = q_9_dilations_0, groups = q_9_groups_0, pad = q_9_pad_0, pad_type = q_9_pad_type_0, strides = q_9_strides_0, weight = var_1251_weight_0_to_fp16, x = input_43_cast_fp16)[name = tensor<string, []>("op_1251_cast_fp16")];
            tensor<string, []> k_9_pad_type_0 = const()[name = tensor<string, []>("k_9_pad_type_0"), val = tensor<string, []>("valid")];
            tensor<int32, [2]> k_9_strides_0 = const()[name = tensor<string, []>("k_9_strides_0"), val = tensor<int32, [2]>([1, 1])];
            tensor<int32, [4]> k_9_pad_0 = const()[name = tensor<string, []>("k_9_pad_0"), val = tensor<int32, [4]>([0, 0, 0, 0])];
            tensor<int32, [2]> k_9_dilations_0 = const()[name = tensor<string, []>("k_9_dilations_0"), val = tensor<int32, [2]>([1, 1])];
            tensor<int32, []> k_9_groups_0 = const()[name = tensor<string, []>("k_9_groups_0"), val = tensor<int32, []>(1)];
            tensor<fp16, [1280, 1280, 1, 1]> blocks_4_attn_key_weight_to_fp16 = const()[name = tensor<string, []>("blocks_4_attn_key_weight_to_fp16"), val = tensor<fp16, [1280, 1280, 1, 1]>(BLOBFILE(path = tensor<string, []>("@model_path/weights/weight.bin"), offset = tensor<uint64, []>(175356800)))];
            tensor<fp16, [1, 1280, 1, 1500]> k_9_cast_fp16 = conv(dilations = k_9_dilations_0, groups = k_9_groups_0, pad = k_9_pad_0, pad_type = k_9_pad_type_0, strides = k_9_strides_0, weight = blocks_4_attn_key_weight_to_fp16, x = input_43_cast_fp16)[name = tensor<string, []>("k_9_cast_fp16")];
            tensor<string, []> var_1249_pad_type_0 = const()[name = tensor<string, []>("op_1249_pad_type_0"), val = tensor<string, []>("valid")];
            tensor<int32, [2]> var_1249_strides_0 = const()[name = tensor<string, []>("op_1249_strides_0"), val = tensor<int32, [2]>([1, 1])];
…
            tensor<fp16, [1, 64, 1, 1500]> var_8383_cast_fp16 = einsum(equation = var_8383_equation_0, values = (var_8289_cast_fp16_6, var_8356_cast_fp16))[name = tensor<string, []>("op_8383_cast_fp16")];
            tensor<string, []> var_8385_equation_0 = const()[name = tensor<string, []>("op_8385_equation_0"), val = tensor<string, []>("bchk,bkhq->bchq")];
            tensor<fp16, [1, 64, 1, 1500]> var_8385_cast_fp16 = einsum(equation = var_8385_equation_0, values = (var_8289_cast_fp16_7, var_8357_cast_fp16))[name = tensor<string, []>("op_8385_cast_fp16")];
            tensor<string, []> var_8387_equation_0 = const()[name = tensor<string, []>("op_8387_equation_0"), val = tensor<string, []>("bchk,bkhq->bchq")];
            tensor<fp16, [1, 64, 1, 1500]> var_8387_cast_fp16 = einsum(equation = var_8387_equation_0, values = (var_8289_cast_fp16_8, var_8358_cast_fp16))[name = tensor<string, []>("op_8387_cast_fp16")];
            tensor<string, []> var_8389_equation_0 = const()[name = tensor<string, []>("op_8389_equation_0"), val = tensor<string, []>("bchk,bkhq->bchq")];
            tensor<fp16, [1, 64, 1, 1500]> var_8389_cast_fp16 = einsum(equation = var_8389_equation_0, values = (var_8289_cast_fp16_9, var_8359_cast_fp16))[name = tensor<string, []>("op_8389_cast_fp16")];
            tensor<string, []> var_8391_equation_0 = const()[name = tensor<string, []>("op_8391_equation_0"), val = tensor<string, []>("bchk,bkhq->bchq")];
            tensor<fp16, [1, 64, 1, 1500]> var_8391_cast_fp16 = einsum(equation = var_8391_equation_0, values = (var_8289_cast_fp16_10, var_8360_cast_fp16))[name = tensor<string, []>("op_8391_cast_fp16")];
            tensor<string, []> var_8393_equation_0 = const()[name = tensor<string, []>("op_8393_equation_0"), val = tensor<string, []>("bchk,bkhq->bchq")];
            tensor<fp16, [1, 64, 1, 1500]> var_8393_cast_fp16 = einsum(equation = var_8393_equation_0, values = (var_8289_cast_fp16_11, var_8361_cast_fp16))[name = tensor<string, []>("op_8393_cast_fp16")];
            tensor<string, []> var_8395_equation_0 = const()[name = tensor<string, []>("op_8395_equation_0"), val = tensor<string, []>("bchk,bkhq->bchq")];
            tensor<fp16, [1, 64, 1, 1500]> var_8395_cast_fp16 = einsum(equation = var_8395_equation_0, values = (var_8289_cast_fp16_12, var_8362_cast_fp16))[name = tensor<string, []>("op_8395_cast_fp16")];
            tensor<string, []> var_8397_equation_0 = const()[name = tensor<string, []>("op_8397_equation_0"), val = tensor<string, []>("bchk,bkhq->bchq")];
            tensor<fp16, [1, 64, 1, 1500]> var_8397_cast_fp16 = einsum(equation = var_8397_equation_0, values = (var_8289_cast_fp16_13, var_8363_cast_fp16))[name = tensor<string, []>("op_8397_cast_fp16")];
            tensor<string, []> var_8399_equation_0 = const()[name = tensor<string, []>("op_8399_equation_0"), val = tensor<string, []>("bchk,bkhq->bchq")];
            tensor<fp16, [1, 64, 1, 1500]> var_8399_cast_fp16 = einsum(equation = var_8399_equation_0, values = (var_8289_cast_fp16_14, var_8364_cast_fp16))[name = tensor<string, []>("op_8399_cast_fp16")];
            tensor<string, []> var_8401_equation_0 = const()[name = tensor<string, []>("op_8401_equation_0"), val = tensor<string, []>("bchk,bkhq->bchq")];
            tensor<fp16, [1, 64, 1, 1500]> var_8401_cast_fp16 = einsum(equation = var_8401_equation_0, values = (var_8289_cast_fp16_15, var_8365_cast_fp16))[name = tensor<string, []>("op_8401_cast_fp16")];
            tensor<string, []> var_8403_equation_0 = const()[name = tensor<string, []>("op_8403_equation_0"), val = tensor<string, []>("bchk,bkhq->bchq")];
            tensor<fp16, [1, 64, 1, 1500]> var_8403_cast_fp16 = einsum(equation = var_8403_equation_0, values = (var_8289_cast_fp16_16, var_8366_cast_fp16))[name = tensor<string, []>("op_8403_cast_fp16")];
            tensor<string, []> var_8405_equation_0 = const()[name = tensor<string, []>("op_8405_equation_0"), val = tensor<string, []>("bchk,bkhq->bchq")];
            tensor<fp16, [1, 64, 1, 1500]> var_8405_cast_fp16 = einsum(equation = var_8405_equation_0, values = (var_8289_cast_fp16_17, var_8367_cast_fp16))[name = tensor<string, []>("op_8405_cast_fp16")];
            tensor<string, []> var_8407_equation_0 = const()[name = tensor<string, []>("op_8407_equation_0"), val = tensor<string, []>("bchk,bkhq->bchq")];
            tensor<fp16, [1, 64, 1, 1500]> var_8407_cast_fp16 = einsum(equation = var_8407_equation_0, values = (var_8289_cast_fp16_18, var_8368_cast_fp16))[name = tensor<string, []>("op_8407_cast_fp16")];
            tensor<string, []> var_8409_equation_0 = const()[name = tensor<string, []>("op_8409_equation_0"), val = tensor<string, []>("bchk,bkhq->bchq")];
            tensor<fp16, [1, 64, 1, 1500]> var_8409_cast_fp16 = einsum(equation = var_8409_equation_0, values = (var_8289_cast_fp16_19, var_8369_cast_fp16))[name = tensor<string, []>("op_8409_cast_fp16")];
            tensor<bool, []> input_305_interleave_0 = const()[name = tensor<string, []>("input_305_interleave_0"), val = tensor<bool, []>(false)];
            tensor<fp16, [1, 1280, 1, 1500]> input_305_cast_fp16 = concat(axis = var_8194, interleave = input_305_interleave_0, values = (var_8371_cast_fp16, var_8373_cast_fp16, var_8375_cast_fp16, var_8377_cast_fp16, var_8379_cast_fp16, var_8381_cast_fp16, var_8383_cast_fp16, var_8385_cast_fp16, var_8387_cast_fp16, var_8389_cast_fp16, var_8391_cast_fp16, var_8393_cast_fp16, var_8395_cast_fp16, var_8397_cast_fp16, var_8399_cast_fp16, var_8401_cast_fp16, var_8403_cast_fp16, var_8405_cast_fp16, var_8407_cast_fp16, var_8409_cast_fp16))[name = tensor<string, []>("input_305_cast_fp16")];
            tensor<string, []> var_8418_pad_type_0 = const()[name = tensor<string, []>("op_8418_pad_type_0"), val = tensor<string, []>("valid")];
            tensor<int32, [2]> var_8418_strides_0 = const()[name = tensor<string, []>("op_8418_strides_0"), val = tensor<int32, [2]>([1, 1])];
            tensor<int32, [4]> var_8418_pad_0 = const()[name = tensor<string, []>("op_8418_pad_0"), val = tensor<int32, [4]>([0, 0, 0, 0])];
            tensor<int32, [2]> var_8418_dilations_0 = const()[name = tensor<string, []>("op_8418_dilations_0"), val = tensor<int32, [2]>([1, 1])];
            tensor<int32, []> var_8418_groups_0 = const()[name = tensor<string, []>("op_8418_groups_0"), val = tensor<int32, []>(1)];
            tensor<fp16, [1280, 1280, 1, 1]> blocks_30_attn_out_weight_to_fp16 = const()[name = tensor<string, []>("blocks_30_attn_out_weight_to_fp16"), val = tensor<fp16, [1280, 1280, 1, 1]>(BLOBFILE(path = tensor<string, []>("@model_path/weights/weight.bin"), offset = tensor<uint64, []>(1205098432)))];
            tensor<fp16, [1280]> blocks_30_attn_out_bias_to_fp16 = const()[name = tensor<string, []>("blocks_30_attn_out_bias_to_fp16"), val = tensor<fp16, [1280]>(BLOBFILE(path = tensor<string, []>("@model_path/weights/weight.bin"), offset = tensor<uint64, []>(1208375296)))];
            tensor<fp16, [1, 1280, 1, 1500]> var_8418_cast_fp16 = conv(bias = blocks_30_attn_out_bias_to_fp16, dilations = var_8418_dilations_0, groups = var_8418_groups_0, pad = var_8418_pad_0, pad_type = var_8418_pad_type_0, strides = var_8418_strides_0, weight = blocks_30_attn_out_weight_to_fp16, x = input_305_cast_fp16)[name = tensor<string, []>("op_8418_cast_fp16")];
            tensor<fp16, [1, 1280, 1, 1500]> inputs_123_cast_fp16 = add(x = inputs_121_cast_fp16, y = var_8418_cast_fp16)[name = tensor<string, []>("inputs_123_cast_fp16")];
            tensor<int32, [1]> input_307_axes_0 = const()[name = tensor<string, []>("input_307_axes_0"), val = tensor<int32, [1]>([1])];
            tensor<fp16, [1280]> input_307_gamma_0_to_fp16 = const()[name = tensor<string, []>("input_307_gamma_0_to_fp16"), val = tensor<fp16, [1280]>(BLOBFILE(path = tensor<string, []>("@model_path/weights/weight.bin"), offset = tensor<uint64, []>(1208377920)))];
            tensor<fp16, [1280]> input_307_beta_0_to_fp16 = const()[name = tensor<string, []>("input_307_beta_0_to_fp16"), val = tensor<fp16, [1280]>(BLOBFILE(path = tensor<string, []>("@model_path/weights/weight.bin"), offset = tensor<uint64, []>(1208380544)))];
            tensor<fp16, []> var_8428_to_fp16 = const()[name = tensor<string, []>("op_8428_to_fp16"), val = tensor<fp16, []>(0x1.5p-17)];
            tensor<fp16, [1, 1280, 1, 1500]> input_307_cast_fp16 = layer_norm(axes = input_307_axes_0, beta = input_307_beta_0_to_fp16, epsilon = var_8428_to_fp16, gamma = input_307_gamma_0_to_fp16, x = inputs_123_cast_fp16)[name = tensor<string, []>("input_307_cast_fp16")];
            tensor<string, []> input_309_pad_type_0 = const()[name = tensor<string, []>("input_309_pad_type_0"), val = tensor<string, []>("valid")];
            tensor<int32, [2]> input_309_strides_0 = const()[name = tensor<string, []>("input_309_strides_0"), val = tensor<int32, [2]>([1, 1])];
            tensor<int32, [4]> input_309_pad_0 = const()[name = tensor<string, []>("input_309_pad_0"), val = tensor<int32, [4]>([0, 0, 0, 0])];
            tensor<int32, [2]> input_309_dilations_0 = const()[name = tensor<string, []>("input_309_dilations_0"), val = tensor<int32, [2]>([1, 1])];
            tensor<int32, []> input_309_groups_0 = const()[name = tensor<string, []>("input_309_groups_0"), val = tensor<int32, []>(1)];
            tensor<fp16, [5120, 1280, 1, 1]> blocks_30_mlp_0_weight_to_fp16 = const()[name = tensor<string, []>("blocks_30_mlp_0_weight_to_fp16"), val = tensor<fp16, [5120, 1280, 1, 1]>(BLOBFILE(path = tensor<string, []>("@model_path/weights/weight.bin"), offset = tensor<uint64, []>(1208383168)))];
            tensor<fp16, [5120]> blocks_30_mlp_0_bias_to_fp16 = const()[name = tensor<string, []>("blocks_30_mlp_0_bias_to_fp16"), val = tensor<fp16, [5120]>(BLOBFILE(path = tensor<string, []>("@model_path/weights/weight.bin"), offset = tensor<uint64, []>(1221490432)))];
            tensor<fp16, [1, 5120, 1, 1500]> input_309_cast_fp16 = conv(bias = blocks_30_mlp_0_bias_to_fp16, dilations = input_309_dilations_0, groups = input_309_groups_0, pad = input_309_pad_0, pad_type = input_309_pad_type_0, strides = input_309_strides_0, weight = blocks_30_mlp_0_weight_to_fp16, x = input_307_cast_fp16)[name = tensor<string, []>("input_309_cast_fp16")];
            tensor<string, []> input_311_mode_0 = const()[name = tensor<string, []>("input_311_mode_0"), val = tensor<string, []>("EXACT")];
            tensor<fp16, [1, 5120, 1, 1500]> input_311_cast_fp16 = gelu(mode = input_311_mode_0, x = input_309_cast_fp16)[name = tensor<string, []>("input_311_cast_fp16")];
            tensor<string, []> var_8454_pad_type_0 = const()[name = tensor<string, []>("op_8454_pad_type_0"), val = tensor<string, []>("valid")];
            tensor<int32, [2]> var_8454_strides_0 = const()[name = tensor<string, []>("op_8454_strides_0"), val = tensor<int32, [2]>([1, 1])];
            tensor<int32, [4]> var_8454_pad_0 = const()[name = tensor<string, []>("op_8454_pad_0"), val = tensor<int32, [4]>([0, 0, 0, 0])];
            tensor<int32, [2]> var_8454_dilations_0 = const()[name = tensor<string, []>("op_8454_dilations_0"), val = tensor<int32, [2]>([1, 1])];
            tensor<int32, []> var_8454_groups_0 = const()[name = tensor<string, []>("op_8454_groups_0"), val = tensor<int32, []>(1)];
            tensor<fp16, [1280, 5120, 1, 1]> blocks_30_mlp_2_weight_to_fp16 = const()[name = tensor<string, []>("blocks_30_mlp_2_weight_to_fp16"), val = tensor<fp16, [1280, 5120, 1, 1]>(BLOBFILE(path = tensor<string, []>("@model_path/weights/weight.bin"), offset = tensor<uint64, []>(1221500736)))];
            tensor<fp16, [1280]> blocks_30_mlp_2_bias_to_fp16 = const()[name = tensor<string, []>("blocks_30_mlp_2_bias_to_fp16"), val = tensor<fp16, [1280]>(BLOBFILE(path = tensor<string, []>("@model_path/weights/weight.bin"), offset = tensor<uint64, []>(1234608000)))];
            tensor<fp16, [1, 1280, 1, 1500]> var_8454_cast_fp16 = conv(bias = blocks_30_mlp_2_bias_to_fp16, dilations = var_8454_dilations_0, groups = var_8454_groups_0, pad = var_8454_pad_0, pad_type = var_8454_pad_type_0, strides = var_8454_strides_0, weight = blocks_30_mlp_2_weight_to_fp16, x = input_311_cast_fp16)[name = tensor<string, []>("op_8454_cast_fp16")];
            tensor<fp16, [1, 1280, 1, 1500]> inputs_125_cast_fp16 = add(x = inputs_123_cast_fp16, y = var_8454_cast_fp16)[name = tensor<string, []>("inputs_125_cast_fp16")];
            tensor<int32, []> var_8463 = const()[name = tensor<string, []>("op_8463"), val = tensor<int32, []>(1)];
            tensor<int32, [1]> input_313_axes_0 = const()[name = tensor<string, []>("input_313_axes_0"), val = tensor<int32, [1]>([1])];
            tensor<fp16, [1280]> input_313_gamma_0_to_fp16 = const()[name = tensor<string, []>("input_313_gamma_0_to_fp16"), val = tensor<fp16, [1280]>(BLOBFILE(path = tensor<string, []>("@model_path/weights/weight.bin"), offset = tensor<uint64, []>(1234610624)))];
            tensor<fp16, [1280]> input_313_beta_0_to_fp16 = const()[name = tensor<string, []>("input_313_beta_0_to_fp16"), val = tensor<fp16, [1280]>(BLOBFILE(path = tensor<string, []>("@model_path/weights/weight.bin"), offset = tensor<uint64, []>(1234613248)))];
            tensor<fp16, []> var_8479_to_fp16 = const()[name = tensor<string, []>("op_8479_to_fp16"), val = tensor<fp16, []>(0x1.5p-17)];
            tensor<fp16, [1, 1280, 1, 1500]> input_313_cast_fp16 = layer_norm(axes = input_313_axes_0, beta = input_313_beta_0_to_fp16, epsilon = var_8479_to_fp16, gamma = input_313_gamma_0_to_fp16, x = inputs_125_cast_fp16)[name = tensor<string, []>("input_313_cast_fp16")];
            tensor<string, []> q_pad_type_0 = const()[name = tensor<string, []>("q_pad_type_0"), val = tensor<string, []>("valid")];
            tensor<int32, [2]> q_strides_0 = const()[name = tensor<string, []>("q_strides_0"), val = tensor<int32, [2]>([1, 1])];
            tensor<int32, [4]> q_pad_0 = const()[name = tensor<string, []>("q_pad_0"), val = tensor<int32, [4]>([0, 0, 0, 0])];
            tensor<int32, [2]> q_dilations_0 = const()[name = tensor<string, []>("q_dilations_0"), val = tensor<int32, [2]>([1, 1])];
            tensor<int32, []> q_groups_0 = const()[name = tensor<string, []>("q_groups_0"), val = tensor<int32, []>(1)];
            tensor<fp16, [1280, 1280, 1, 1]> var_8514_weight_0_to_fp16 = const()[name = tensor<string, []>("op_8514_weight_0_to_fp16"), val = tensor<fp16, [1280, 1280, 1, 1]>(BLOBFILE(path = tensor<string, []>("@model_path/weights/weight.bin"), offset = tensor<uint64, []>(1234615872)))];
            tensor<fp16, [1280]> var_8514_bias_0_to_fp16 = const()[name = tensor<string, []>("op_8514_bias_0_to_fp16"), val = tensor<fp16, [1280]>(BLOBFILE(path = tensor<string, []>("@model_path/weights/weight.bin"), offset = tensor<uint64, []>(1237892736)))];
            tensor<fp16, [1, 1280, 1, 1500]> var_8514_cast_fp16 = conv(bias = var_8514_bias_0_to_fp16, dilations = q_dilations_0, groups = q_groups_0, pad = q_pad_0, pad_type = q_pad_type_0, strides = q_strides_0, weight = var_8514_weight_0_to_fp16, x = input_313_cast_fp16)[name = tensor<string, []>("op_8514_cast_fp16")];
            tensor<string, []> k_pad_type_0 = const()[name = tensor<string, []>("k_pad_type_0"), val = tensor<string, []>("valid")];
            tensor<int32, [2]> k_strides_0 = const()[name = tensor<string, []>("k_strides_0"), val = tensor<int32, [2]>([1, 1])];
            tensor<int32, [4]> k_pad_0 = const()[name = tensor<string, []>("k_pad_0"), val = tensor<int32, [4]>([0, 0, 0, 0])];
            tensor<int32, [2]> k_dilations_0 = const()[name = tensor<string, []>("k_dilations_0"), val = tensor<int32, [2]>([1, 1])];
            tensor<int32, []> k_groups_0 = const()[name = tensor<string, []>("k_groups_0"), val = tensor<int32, []>(1)];
            tensor<fp16, [1280, 1280, 1, 1]> blocks_31_attn_key_weight_to_fp16 = const()[name = tensor<string, []>("blocks_31_attn_key_weight_to_fp16"), val = tensor<fp16, [1280, 1280, 1, 1]>(BLOBFILE(path = tensor<string, []>("@model_path/weights/weight.bin"), offset = tensor<uint64, []>(1237895360)))];
            tensor<fp16, [1, 1280, 1, 1500]> k_cast_fp16 = conv(dilations = k_dilations_0, groups = k_groups_0, pad = k_pad_0, pad_type = k_pad_type_0, strides = k_strides_0, weight = blocks_31_attn_key_weight_to_fp16, x = input_313_cast_fp16)[name = tensor<string, []>("k_cast_fp16")];
            tensor<string, []> var_8512_pad_type_0 = const()[name = tensor<string, []>("op_8512_pad_type_0"), val = tensor<string, []>("valid")];
            tensor<int32, [2]> var_8512_strides_0 = const()[name = tensor<string, []>("op_8512_strides_0"), val = tensor<int32, [2]>([1, 1])];
            tensor<int32, [4]> var_8512_pad_0 = const()[name = tensor<string, []>("op_8512_pad_0"), val = tensor<int32, [4]>([0, 0, 0, 0])];
            tensor<int32, [2]> var_8512_dilations_0 = const()[name = tensor<string, []>("op_8512_dilations_0"), val = tensor<int32, [2]>([1, 1])];
            tensor<int32, []> var_8512_groups_0 = const()[name = tensor<string, []>("op_8512_groups_0"), val = tensor<int32, []>(1)];
            tensor<fp16, [1280, 1280, 1, 1]> blocks_31_attn_value_weight_to_fp16 = const()[name = tensor<string, []>("blocks_31_attn_value_weight_to_fp16"), val = tensor<fp16, [1280, 1280, 1, 1]>(BLOBFILE(path = tensor<string, []>("@model_path/weights/weight.bin"), offset = tensor<uint64, []>(1241172224)))];
            tensor<fp16, [1280]> blocks_31_attn_value_bias_to_fp16 = const()[name = tensor<string, []>("blocks_31_attn_value_bias_to_fp16"), val = tensor<fp16, [1280]>(BLOBFILE(path = tensor<string, []>("@model_path/weights/weight.bin"), offset = tensor<uint64, []>(1244449088)))];
            tensor<fp16, [1, 1280, 1, 1500]> var_8512_cast_fp16 = conv(bias = blocks_31_attn_value_bias_to_fp16, dilations = var_8512_dilations_0, groups = var_8512_groups_0, pad = var_8512_pad_0, pad_type = var_8512_pad_type_0, strides = var_8512_strides_0, weight = blocks_31_attn_value_weight_to_fp16, x = input_313_cast_fp16)[name = tensor<string, []>("op_8512_cast_fp16")];
            tensor<int32, [20]> tile_93 = const()[name = tensor<string, []>("tile_93"), val = tensor<int32, [20]>([64, 64, 64, 64, 64, 64, 64, 64, 64, 64, 64, 64, 64, 64, 64, 64, 64, 64, 64, 64])];
            tensor<int32, []> var_8515_axis_0 = const()[name = tensor<string, []>("op_8515_axis_0"), val = tensor<int32, []>(1)];
            tensor<fp16, [1, 64, 1, 1500]> var_8515_cast_fp16_0, tensor<fp16, [1, 64, 1, 1500]> var_8515_cast_fp16_1, tensor<fp16, [1, 64, 1, 1500]> var_8515_cast_fp16_2, tensor<fp16, [1, 64, 1, 1500]> var_8515_cast_fp16_3, tensor<fp16, [1, 64, 1, 1500]> var_8515_cast_fp16_4, tensor<fp16, [1, 64, 1, 1500]> var_8515_cast_fp16_5, tensor<fp16, [1, 64, 1, 1500]> var_8515_cast_fp16_6, tensor<fp16, [1, 64, 1, 1500]> var_8515_cast_fp16_7, tensor<fp16, [1, 64, 1, 1500]> var_8515_cast_fp16_8, tensor<fp16, [1, 64, 1, 1500]> var_8515_cast_fp16_9, tensor<fp16, [1, 64, 1, 1500]> var_8515_cast_fp16_10, tensor<fp16, [1, 64, 1, 1500]> var_8515_cast_fp16_11, tensor<fp16, [1, 64, 1, 1500]> var_8515_cast_fp16_12, tensor<fp16, [1, 64, 1, 1500]> var_8515_cast_fp16_13, tensor<fp16, [1, 64, 1, 1500]> var_8515_cast_fp16_14, tensor<fp16, [1, 64, 1, 1500]> var_8515_cast_fp16_15, tensor<fp16, [1, 64, 1, 1500]> var_8515_cast_fp16_16, tensor<fp16, [1, 64, 1, 1500]> var_8515_cast_fp16_17, tensor<fp16, [1, 64, 1, 1500]> var_8515_cast_fp16_18, tensor<fp16, [1, 64, 1, 1500]> var_8515_cast_fp16_19 = split(axis = var_8515_axis_0, split_sizes = tile_93, x = var_8514_cast_fp16)[name = tensor<string, []>("op_8515_cast_fp16")];
            tensor<int32, [4]> var_8536_perm_0 = const()[name = tensor<string, []>("op_8536_perm_0"), val = tensor<int32, [4]>([0, 3, 2, 1])];
            tensor<int32, [20]> tile_94 = const()[name = tensor<string, []>("tile_94"), val = tensor<int32, [20]>([64, 64, 64, 64, 64, 64, 64, 64, 64, 64, 64, 64, 64, 64, 64, 64, 64, 64, 64, 64])];
            tensor<int32, []> var_8537_axis_0 = const()[name = tensor<string, []>("op_8537_axis_0"), val = tensor<int32, []>(3)];
            tensor<fp16, [1, 1500, 1, 1280]> var_8536_cast_fp16 = transpose(perm = var_8536_perm_0, x = k_cast_fp16)[name = tensor<string, []>("transpose_1")];
            tensor<fp16, [1, 1500, 1, 64]> var_8537_cast_fp16_0, tensor<fp16, [1, 1500, 1, 64]> var_8537_cast_fp16_1, tensor<fp16, [1, 1500, 1, 64]> var_8537_cast_fp16_2, tensor<fp16, [1, 1500, 1, 64]> var_8537_cast_fp16_3, tensor<fp16, [1, 1500, 1, 64]> var_8537_cast_fp16_4, tensor<fp16, [1, 1500, 1, 64]> var_8537_cast_fp16_5, tensor<fp16, [1, 1500, 1, 64]> var_8537_cast_fp16_6, tensor<fp16, [1, 1500, 1, 64]> var_8537_cast_fp16_7, tensor<fp16, [1, 1500, 1, 64]> var_8537_cast_fp16_8, tensor<fp16, [1, 1500, 1, 64]> var_8537_cast_fp16_9, tensor<fp16, [1, 1500, 1, 64]> var_8537_cast_fp16_10, tensor<fp16, [1, 1500, 1, 64]> var_8537_cast_fp16_11, tensor<fp16, [1, 1500, 1, 64]> var_8537_cast_fp16_12, tensor<fp16, [1, 1500, 1, 64]> var_8537_cast_fp16_13, tensor<fp16, [1, 1500, 1, 64]> var_8537_cast_fp16_14, tensor<fp16, [1, 1500, 1, 64]> var_8537_cast_fp16_15, tensor<fp16, [1, 1500, 1, 64]> var_8537_cast_fp16_16, tensor<fp16, [1, 1500, 1, 64]> var_8537_cast_fp16_17, tensor<fp16, [1, 1500, 1, 64]> var_8537_cast_fp16_18, tensor<fp16, [1, 1500, 1, 64]> var_8537_cast_fp16_19 = split(axis = var_8537_axis_0, split_sizes = tile_94, x = var_8536_cast_fp16)[name = tensor<string, []>("op_8537_cast_fp16")];
            tensor<int32, [20]> tile_95 = const()[name = tensor<string, []>("tile_95"), val = tensor<int32, [20]>([64, 64, 64, 64, 64, 64, 64, 64, 64, 64, 64, 64, 64, 64, 64, 64, 64, 64, 64, 64])];
            tensor<int32, []> var_8558_axis_0 = const()[name = tensor<string, []>("op_8558_axis_0"), val = tensor<int32, []>(1)];
            tensor<fp16, [1, 64, 1, 1500]> var_8558_cast_fp16_0, tensor<fp16, [1, 64, 1, 1500]> var_8558_cast_fp16_1, tensor<fp16, [1, 64, 1, 1500]> var_8558_cast_fp16_2, tensor<fp16, [1, 64, 1, 1500]> var_8558_cast_fp16_3, tensor<fp16, [1, 64, 1, 1500]> var_8558_cast_fp16_4, tensor<fp16, [1, 64, 1, 1500]> var_8558_cast_fp16_5, tensor<fp16, [1, 64, 1, 1500]> var_8558_cast_fp16_6, tensor<fp16, [1, 64, 1, 1500]> var_8558_cast_fp16_7, tensor<fp16, [1, 64, 1, 1500]> var_8558_cast_fp16_8, tensor<fp16, [1, 64, 1, 1500]> var_8558_cast_fp16_9, tensor<fp16, [1, 64, 1, 1500]> var_8558_cast_fp16_10, tensor<fp16, [1, 64, 1, 1500]> var_8558_cast_fp16_11, tensor<fp16, [1, 64, 1, 1500]> var_8558_cast_fp16_12, tensor<fp16, [1, 64, 1, 1500]> var_8558_cast_fp16_13, tensor<fp16, [1, 64, 1, 1500]> var_8558_cast_fp16_14, tensor<fp16, [1, 64, 1, 1500]> var_8558_cast_fp16_15, tensor<fp16, [1, 64, 1, 1500]> var_8558_cast_fp16_16, tensor<fp16, [1, 64, 1, 1500]> var_8558_cast_fp16_17, tensor<fp16, [1, 64, 1, 1500]> var_8558_cast_fp16_18, tensor<fp16, [1, 64, 1, 1500]> var_8558_cast_fp16_19 = split(axis = var_8558_axis_0, split_sizes = tile_95, x = var_8512_cast_fp16)[name = tensor<string, []>("op_8558_cast_fp16")];
            tensor<string, []> aw_1241_equation_0 = const()[name = tensor<string, []>("aw_1241_equation_0"), val = tensor<string, []>("bkhc,bchq->bkhq")];
            tensor<fp16, [1, 1500, 1, 1500]> aw_1241_cast_fp16 = einsum(equation = aw_1241_equation_0, values = (var_8537_cast_fp16_0, var_8515_cast_fp16_0))[name = tensor<string, []>("aw_1241_cast_fp16")];
            tensor<string, []> aw_1243_equation_0 = const()[name = tensor<string, []>("aw_1243_equation_0"), val = tensor<string, []>("bkhc,bchq->bkhq")];
            tensor<fp16, [1, 1500, 1, 1500]> aw_1243_cast_fp16 = einsum(equation = aw_1243_equation_0, values = (var_8537_cast_fp16_1, var_8515_cast_fp16_1))[name = tensor<string, []>("aw_1243_cast_fp16")];
            tensor<string, []> aw_1245_equation_0 = const()[name = tensor<string, []>("aw_1245_equation_0"), val = tensor<string, []>("bkhc,bchq->bkhq")];
            tensor<fp16, [1, 1500, 1, 1500]> aw_1245_cast_fp16 = einsum(equation = aw_1245_equation_0, values = (var_8537_cast_fp16_2, var_8515_cast_fp16_2))[name = tensor<string, []>("aw_1245_cast_fp16")];
            tensor<string, []> aw_1247_equation_0 = const()[name = tensor<string, []>("aw_1247_equation_0"), val = tensor<string, []>("bkhc,bchq->bkhq")];
            tensor<fp16, [1, 1500, 1, 1500]> aw_1247_cast_fp16 = einsum(equation = aw_1247_equation_0, values = (var_8537_cast_fp16_3, var_8515_cast_fp16_3))[name = tensor<string, []>("aw_1247_cast_fp16")];
            tensor<string, []> aw_1249_equation_0 = const()[name = tensor<string, []>("aw_1249_equation_0"), val = tensor<string, []>("bkhc,bchq->bkhq")];
            tensor<fp16, [1, 1500, 1, 1500]> aw_1249_cast_fp16 = einsum(equation = aw_1249_equation_0, values = (var_8537_cast_fp16_4, var_8515_cast_fp16_4))[name = tensor<string, []>("aw_1249_cast_fp16")];
            tensor<string, []> aw_1251_equation_0 = const()[name = tensor<string, []>("aw_1251_equation_0"), val = tensor<string, []>("bkhc,bchq->bkhq")];
            tensor<fp16, [1, 1500, 1, 1500]> aw_1251_cast_fp16 = einsum(equation = aw_1251_equation_0, values = (var_8537_cast_fp16_5, var_8515_cast_fp16_5))[name = tensor<string, []>("aw_1251_cast_fp16")];
            tensor<string, []> aw_1253_equation_0 = const()[name = tensor<string, []>("aw_1253_equation_0"), val = tensor<string, []>("bkhc,bchq->bkhq")];
            tensor<fp16, [1, 1500, 1, 1500]> aw_1253_cast_fp16 = einsum(equation = aw_1253_equation_0, values = (var_8537_cast_fp16_6, var_8515_cast_fp16_6))[name = tensor<string, []>("aw_1253_cast_fp16")];
            tensor<string, []> aw_1255_equation_0 = const()[name = tensor<string, []>("aw_1255_equation_0"), val = tensor<string, []>("bkhc,bchq->bkhq")];
            tensor<fp16, [1, 1500, 1, 1500]> aw_1255_cast_fp16 = einsum(equation = aw_1255_equation_0, values = (var_8537_cast_fp16_7, var_8515_cast_fp16_7))[name = tensor<string, []>("aw_1255_cast_fp16")];
            tensor<string, []> aw_1257_equation_0 = const()[name = tensor<string, []>("aw_1257_equation_0"), val = tensor<string, []>("bkhc,bchq->bkhq")];
            tensor<fp16, [1, 1500, 1, 1500]> aw_1257_cast_fp16 = einsum(equation = aw_1257_equation_0, values = (var_8537_cast_fp16_8, var_8515_cast_fp16_8))[name = tensor<string, []>("aw_1257_cast_fp16")];
            tensor<string, []> aw_1259_equation_0 = const()[name = tensor<string, []>("aw_1259_equation_0"), val = tensor<string, []>("bkhc,bchq->bkhq")];
            tensor<fp16, [1, 1500, 1, 1500]> aw_1259_cast_fp16 = einsum(equation = aw_1259_equation_0, values = (var_8537_cast_fp16_9, var_8515_cast_fp16_9))[name = tensor<string, []>("aw_1259_cast_fp16")];
            tensor<string, []> aw_1261_equation_0 = const()[name = tensor<string, []>("aw_1261_equation_0"), val = tensor<string, []>("bkhc,bchq->bkhq")];
            tensor<fp16, [1, 1500, 1, 1500]> aw_1261_cast_fp16 = einsum(equation = aw_1261_equation_0, values = (var_8537_cast_fp16_10, var_8515_cast_fp16_10))[name = tensor<string, []>("aw_1261_cast_fp16")];
            tensor<string, []> aw_1263_equation_0 = const()[name = tensor<string, []>("aw_1263_equation_0"), val = tensor<string, []>("bkhc,bchq->bkhq")];
            tensor<fp16, [1, 1500, 1, 1500]> aw_1263_cast_fp16 = einsum(equation = aw_1263_equation_0, values = (var_8537_cast_fp16_11, var_8515_cast_fp16_11))[name = tensor<string, []>("aw_1263_cast_fp16")];
            tensor<string, []> aw_1265_equation_0 = const()[name = tensor<string, []>("aw_1265_equation_0"), val = tensor<string, []>("bkhc,bchq->bkhq")];
            tensor<fp16, [1, 1500, 1, 1500]> aw_1265_cast_fp16 = einsum(equation = aw_1265_equation_0, values = (var_8537_cast_fp16_12, var_8515_cast_fp16_12))[name = tensor<string, []>("aw_1265_cast_fp16")];
            tensor<string, []> aw_1267_equation_0 = const()[name = tensor<string, []>("aw_1267_equation_0"), val = tensor<string, []>("bkhc,bchq->bkhq")];
            tensor<fp16, [1, 1500, 1, 1500]> aw_1267_cast_fp16 = einsum(equation = aw_1267_equation_0, values = (var_8537_cast_fp16_13, var_8515_cast_fp16_13))[name = tensor<string, []>("aw_1267_cast_fp16")];
            tensor<string, []> aw_1269_equation_0 = const()[name = tensor<string, []>("aw_1269_equation_0"), val = tensor<string, []>("bkhc,bchq->bkhq")];
            tensor<fp16, [1, 1500, 1, 1500]> aw_1269_cast_fp16 = einsum(equation = aw_1269_equation_0, values = (var_8537_cast_fp16_14, var_8515_cast_fp16_14))[name = tensor<string, []>("aw_1269_cast_fp16")];
            tensor<string, []> aw_1271_equation_0 = const()[name = tensor<string, []>("aw_1271_equation_0"), val = tensor<string, []>("bkhc,bchq->bkhq")];
            tensor<fp16, [1, 1500, 1, 1500]> aw_1271_cast_fp16 = einsum(equation = aw_1271_equation_0, values = (var_8537_cast_fp16_15, var_8515_cast_fp16_15))[name = tensor<string, []>("aw_1271_cast_fp16")];
            tensor<string, []> aw_1273_equation_0 = const()[name = tensor<string, []>("aw_1273_equation_0"), val = tensor<string, []>("bkhc,bchq->bkhq")];
            tensor<fp16, [1, 1500, 1, 1500]> aw_1273_cast_fp16 = einsum(equation = aw_1273_equation_0, values = (var_8537_cast_fp16_16, var_8515_cast_fp16_16))[name = tensor<string, []>("aw_1273_cast_fp16")];
            tensor<string, []> aw_1275_equation_0 = const()[name = tensor<string, []>("aw_1275_equation_0"), val = tensor<string, []>("bkhc,bchq->bkhq")];
            tensor<fp16, [1, 1500, 1, 1500]> aw_1275_cast_fp16 = einsum(equation = aw_1275_equation_0, values = (var_8537_cast_fp16_17, var_8515_cast_fp16_17))[name = tensor<string, []>("aw_1275_cast_fp16")];
            tensor<string, []> aw_1277_equation_0 = const()[name = tensor<string, []>("aw_1277_equation_0"), val = tensor<string, []>("bkhc,bchq->bkhq")];
            tensor<fp16, [1, 1500, 1, 1500]> aw_1277_cast_fp16 = einsum(equation = aw_1277_equation_0, values = (var_8537_cast_fp16_18, var_8515_cast_fp16_18))[name = tensor<string, []>("aw_1277_cast_fp16")];
            tensor<string, []> aw_equation_0 = const()[name = tensor<string, []>("aw_equation_0"), val = tensor<string, []>("bkhc,bchq->bkhq")];
            tensor<fp16, [1, 1500, 1, 1500]> aw_cast_fp16 = einsum(equation = aw_equation_0, values = (var_8537_cast_fp16_19, var_8515_cast_fp16_19))[name = tensor<string, []>("aw_cast_fp16")];
            tensor<fp16, [1, 1500, 1, 1500]> var_8619_cast_fp16 = softmax(axis = var_8463, x = aw_1241_cast_fp16)[name = tensor<string, []>("op_8619_cast_fp16")];
            tensor<fp16, [1, 1500, 1, 1500]> var_8620_cast_fp16 = softmax(axis = var_8463, x = aw_1243_cast_fp16)[name = tensor<string, []>("op_8620_cast_fp16")];
            tensor<fp16, [1, 1500, 1, 1500]> var_8621_cast_fp16 = softmax(axis = var_8463, x = aw_1245_cast_fp16)[name = tensor<string, []>("op_8621_cast_fp16")];
            tensor<fp16, [1, 1500, 1, 1500]> var_8622_cast_fp16 = softmax(axis = var_8463, x = aw_1247_cast_fp16)[name = tensor<string, []>("op_8622_cast_fp16")];
            tensor<fp16, [1, 1500, 1, 1500]> var_8623_cast_fp16 = softmax(axis = var_8463, x = aw_1249_cast_fp16)[name = tensor<string, []>("op_8623_cast_fp16")];
            tensor<fp16, [1, 1500, 1, 1500]> var_8624_cast_fp16 = softmax(axis = var_8463, x = aw_1251_cast_fp16)[name = tensor<string, []>("op_8624_cast_fp16")];
            tensor<fp16, [1, 1500, 1, 1500]> var_8625_cast_fp16 = softmax(axis = var_8463, x = aw_1253_cast_fp16)[name = tensor<string, []>("op_8625_cast_fp16")];
            tensor<fp16, [1, 1500, 1, 1500]> var_8626_cast_fp16 = softmax(axis = var_8463, x = aw_1255_cast_fp16)[name = tensor<string, []>("op_8626_cast_fp16")];
            tensor<fp16, [1, 1500, 1, 1500]> var_8627_cast_fp16 = softmax(axis = var_8463, x = aw_1257_cast_fp16)[name = tensor<string, []>("op_8627_cast_fp16")];
            tensor<fp16, [1, 1500, 1, 1500]> var_8628_cast_fp16 = softmax(axis = var_8463, x = aw_1259_cast_fp16)[name = tensor<string, []>("op_8628_cast_fp16")];
            tensor<fp16, [1, 1500, 1, 1500]> var_8629_cast_fp16 = softmax(axis = var_8463, x = aw_1261_cast_fp16)[name = tensor<string, []>("op_8629_cast_fp16")];
            tensor<fp16, [1, 1500, 1, 1500]> var_8630_cast_fp16 = softmax(axis = var_8463, x = aw_1263_cast_fp16)[name = tensor<string, []>("op_8630_cast_fp16")];
            tensor<fp16, [1, 1500, 1, 1500]> var_8631_cast_fp16 = softmax(axis = var_8463, x = aw_1265_cast_fp16)[name = tensor<string, []>("op_8631_cast_fp16")];
            tensor<fp16, [1, 1500, 1, 1500]> var_8632_cast_fp16 = softmax(axis = var_8463, x = aw_1267_cast_fp16)[name = tensor<string, []>("op_8632_cast_fp16")];
            tensor<fp16, [1, 1500, 1, 1500]> var_8633_cast_fp16 = softmax(axis = var_8463, x = aw_1269_cast_fp16)[name = tensor<string, []>("op_8633_cast_fp16")];
            tensor<fp16, [1, 1500, 1, 1500]> var_8634_cast_fp16 = softmax(axis = var_8463, x = aw_1271_cast_fp16)[name = tensor<string, []>("op_8634_cast_fp16")];
            tensor<fp16, [1, 1500, 1, 1500]> var_8635_cast_fp16 = softmax(axis = var_8463, x = aw_1273_cast_fp16)[name = tensor<string, []>("op_8635_cast_fp16")];
            tensor<fp16, [1, 1500, 1, 1500]> var_8636_cast_fp16 = softmax(axis = var_8463, x = aw_1275_cast_fp16)[name = tensor<string, []>("op_8636_cast_fp16")];
            tensor<fp16, [1, 1500, 1, 1500]> var_8637_cast_fp16 = softmax(axis = var_8463, x = aw_1277_cast_fp16)[name = tensor<string, []>("op_8637_cast_fp16")];
            tensor<fp16, [1, 1500, 1, 1500]> var_8638_cast_fp16 = softmax(axis = var_8463, x = aw_cast_fp16)[name = tensor<string, []>("op_8638_cast_fp16")];
            tensor<string, []> var_8640_equation_0 = const()[name = tensor<string, []>("op_8640_equation_0"), val = tensor<string, []>("bchk,bkhq->bchq")];
            tensor<fp16, [1, 64, 1, 1500]> var_8640_cast_fp16 = einsum(equation = var_8640_equation_0, values = (var_8558_cast_fp16_0, var_8619_cast_fp16))[name = tensor<string, []>("op_8640_cast_fp16")];
            tensor<string, []> var_8642_equation_0 = const()[name = tensor<string, []>("op_8642_equation_0"), val = tensor<string, []>("bchk,bkhq->bchq")];
            tensor<fp16, [1, 64, 1, 1500]> var_8642_cast_fp16 = einsum(equation = var_8642_equation_0, values = (var_8558_cast_fp16_1, var_8620_cast_fp16))[name = tensor<string, []>("op_8642_cast_fp16")];
            tensor<string, []> var_8644_equation_0 = const()[name = tensor<string, []>("op_8644_equation_0"), val = tensor<string, []>("bchk,bkhq->bchq")];
            tensor<fp16, [1, 64, 1, 1500]> var_8644_cast_fp16 = einsum(equation = var_8644_equation_0, values = (var_8558_cast_fp16_2, var_8621_cast_fp16))[name = tensor<string, []>("op_8644_cast_fp16")];
            tensor<string, []> var_8646_equation_0 = const()[name = tensor<string, []>("op_8646_equation_0"), val = tensor<string, []>("bchk,bkhq->bchq")];
            tensor<fp16, [1, 64, 1, 1500]> var_8646_cast_fp16 = einsum(equation = var_8646_equation_0, values = (var_8558_cast_fp16_3, var_8622_cast_fp16))[name = tensor<string, []>("op_8646_cast_fp16")];
            tensor<string, []> var_8648_equation_0 = const()[name = tensor<string, []>("op_8648_equation_0"), val = tensor<string, []>("bchk,bkhq->bchq")];
            tensor<fp16, [1, 64, 1, 1500]> var_8648_cast_fp16 = einsum(equation = var_8648_equation_0, values = (var_8558_cast_fp16_4, var_8623_cast_fp16))[name = tensor<string, []>("op_8648_cast_fp16")];
            tensor<string, []> var_8650_equation_0 = const()[name = tensor<string, []>("op_8650_equation_0"), val = tensor<string, []>("bchk,bkhq->bchq")];
            tensor<fp16, [1, 64, 1, 1500]> var_8650_cast_fp16 = einsum(equation = var_8650_equation_0, values = (var_8558_cast_fp16_5, var_8624_cast_fp16))[name = tensor<string, []>("op_8650_cast_fp16")];
            tensor<string, []> var_8652_equation_0 = const()[name = tensor<string, []>("op_8652_equation_0"), val = tensor<string, []>("bchk,bkhq->bchq")];
            tensor<fp16, [1, 64, 1, 1500]> var_8652_cast_fp16 = einsum(equation = var_8652_equation_0, values = (var_8558_cast_fp16_6, var_8625_cast_fp16))[name = tensor<string, []>("op_8652_cast_fp16")];
            tensor<string, []> var_8654_equation_0 = const()[name = tensor<string, []>("op_8654_equation_0"), val = tensor<string, []>("bchk,bkhq->bchq")];
            tensor<fp16, [1, 64, 1, 1500]> var_8654_cast_fp16 = einsum(equation = var_8654_equation_0, values = (var_8558_cast_fp16_7, var_8626_cast_fp16))[name = tensor<string, []>("op_8654_cast_fp16")];
            tensor<string, []> var_8656_equation_0 = const()[name = tensor<string, []>("op_8656_equation_0"), val = tensor<string, []>("bchk,bkhq->bchq")];
            tensor<fp16, [1, 64, 1, 1500]> var_8656_cast_fp16 = einsum(equation = var_8656_equation_0, values = (var_8558_cast_fp16_8, var_8627_cast_fp16))[name = tensor<string, []>("op_8656_cast_fp16")];
            tensor<string, []> var_8658_equation_0 = const()[name = tensor<string, []>("op_8658_equation_0"), val = tensor<string, []>("bchk,bkhq->bchq")];
            tensor<fp16, [1, 64, 1, 1500]> var_8658_cast_fp16 = einsum(equation = var_8658_equation_0, values = (var_8558_cast_fp16_9, var_8628_cast_fp16))[name = tensor<string, []>("op_8658_cast_fp16")];
            tensor<string, []> var_8660_equation_0 = const()[name = tensor<string, []>("op_8660_equation_0"), val = tensor<string, []>("bchk,bkhq->bchq")];
            tensor<fp16, [1, 64, 1, 1500]> var_8660_cast_fp16 = einsum(equation = var_8660_equation_0, values = (var_8558_cast_fp16_10, var_8629_cast_fp16))[name = tensor<string, []>("op_8660_cast_fp16")];
            tensor<string, []> var_8662_equation_0 = const()[name = tensor<string, []>("op_8662_equation_0"), val = tensor<string, []>("bchk,bkhq->bchq")];
            tensor<fp16, [1, 64, 1, 1500]> var_8662_cast_fp16 = einsum(equation = var_8662_equation_0, values = (var_8558_cast_fp16_11, var_8630_cast_fp16))[name = tensor<string, []>("op_8662_cast_fp16")];
            tensor<string, []> var_8664_equation_0 = const()[name = tensor<string, []>("op_8664_equation_0"), val = tensor<string, []>("bchk,bkhq->bchq")];
            tensor<fp16, [1, 64, 1, 1500]> var_8664_cast_fp16 = einsum(equation = var_8664_equation_0, values = (var_8558_cast_fp16_12, var_8631_cast_fp16))[name = tensor<string, []>("op_8664_cast_fp16")];
            tensor<string, []> var_8666_equation_0 = const()[name = tensor<string, []>("op_8666_equation_0"), val = tensor<string, []>("bchk,bkhq->bchq")];
            tensor<fp16, [1, 64, 1, 1500]> var_8666_cast_fp16 = einsum(equation = var_8666_equation_0, values = (var_8558_cast_fp16_13, var_8632_cast_fp16))[name = tensor<string, []>("op_8666_cast_fp16")];
            tensor<string, []> var_8668_equation_0 = const()[name = tensor<string, []>("op_8668_equation_0"), val = tensor<string, []>("bchk,bkhq->bchq")];
            tensor<fp16, [1, 64, 1, 1500]> var_8668_cast_fp16 = einsum(equation = var_8668_equation_0, values = (var_8558_cast_fp16_14, var_8633_cast_fp16))[name = tensor<string, []>("op_8668_cast_fp16")];
            tensor<string, []> var_8670_equation_0 = const()[name = tensor<string, []>("op_8670_equation_0"), val = tensor<string, []>("bchk,bkhq->bchq")];
            tensor<fp16, [1, 64, 1, 1500]> var_8670_cast_fp16 = einsum(equation = var_8670_equation_0, values = (var_8558_cast_fp16_15, var_8634_cast_fp16))[name = tensor<string, []>("op_8670_cast_fp16")];
            tensor<string, []> var_8672_equation_0 = const()[name = tensor<string, []>("op_8672_equation_0"), val = tensor<string, []>("bchk,bkhq->bchq")];
            tensor<fp16, [1, 64, 1, 1500]> var_8672_cast_fp16 = einsum(equation = var_8672_equation_0, values = (var_8558_cast_fp16_16, var_8635_cast_fp16))[name = tensor<string, []>("op_8672_cast_fp16")];
            tensor<string, []> var_8674_equation_0 = const()[name = tensor<string, []>("op_8674_equation_0"), val = tensor<string, []>("bchk,bkhq->bchq")];
            tensor<fp16, [1, 64, 1, 1500]> var_8674_cast_fp16 = einsum(equation = var_8674_equation_0, values = (var_8558_cast_fp16_17, var_8636_cast_fp16))[name = tensor<string, []>("op_8674_cast_fp16")];
            tensor<string, []> var_8676_equation_0 = const()[name = tensor<string, []>("op_8676_equation_0"), val = tensor<string, []>("bchk,bkhq->bchq")];
            tensor<fp16, [1, 64, 1, 1500]> var_8676_cast_fp16 = einsum(equation = var_8676_equation_0, values = (var_8558_cast_fp16_18, var_8637_cast_fp16))[name = tensor<string, []>("op_8676_cast_fp16")];
            tensor<string, []> var_8678_equation_0 = const()[name = tensor<string, []>("op_8678_equation_0"), val = tensor<string, []>("bchk,bkhq->bchq")];
            tensor<fp16, [1, 64, 1, 1500]> var_8678_cast_fp16 = einsum(equation = var_8678_equation_0, values = (var_8558_cast_fp16_19, var_8638_cast_fp16))[name = tensor<string, []>("op_8678_cast_fp16")];
            tensor<bool, []> input_315_interleave_0 = const()[name = tensor<string, []>("input_315_interleave_0"), val = tensor<bool, []>(false)];
            tensor<fp16, [1, 1280, 1, 1500]> input_315_cast_fp16 = concat(axis = var_8463, interleave = input_315_interleave_0, values = (var_8640_cast_fp16, var_8642_cast_fp16, var_8644_cast_fp16, var_8646_cast_fp16, var_8648_cast_fp16, var_8650_cast_fp16, var_8652_cast_fp16, var_8654_cast_fp16, var_8656_cast_fp16, var_8658_cast_fp16, var_8660_cast_fp16, var_8662_cast_fp16, var_8664_cast_fp16, var_8666_cast_fp16, var_8668_cast_fp16, var_8670_cast_fp16, var_8672_cast_fp16, var_8674_cast_fp16, var_8676_cast_fp16, var_8678_cast_fp16))[name = tensor<string, []>("input_315_cast_fp16")];
            tensor<string, []> var_8687_pad_type_0 = const()[name = tensor<string, []>("op_8687_pad_type_0"), val = tensor<string, []>("valid")];
            tensor<int32, [2]> var_8687_strides_0 = const()[name = tensor<string, []>("op_8687_strides_0"), val = tensor<int32, [2]>([1, 1])];
            tensor<int32, [4]> var_8687_pad_0 = const()[name = tensor<string, []>("op_8687_pad_0"), val = tensor<int32, [4]>([0, 0, 0, 0])];
            tensor<int32, [2]> var_8687_dilations_0 = const()[name = tensor<string, []>("op_8687_dilations_0"), val = tensor<int32, [2]>([1, 1])];
            tensor<int32, []> var_8687_groups_0 = const()[name = tensor<string, []>("op_8687_groups_0"), val = tensor<int32, []>(1)];
            tensor<fp16, [1280, 1280, 1, 1]> blocks_31_attn_out_weight_to_fp16 = const()[name = tensor<string, []>("blocks_31_attn_out_weight_to_fp16"), val = tensor<fp16, [1280, 1280, 1, 1]>(BLOBFILE(path = tensor<string, []>("@model_path/weights/weight.bin"), offset = tensor<uint64, []>(1244451712)))];
            tensor<fp16, [1280]> blocks_31_attn_out_bias_to_fp16 = const()[name = tensor<string, []>("blocks_31_attn_out_bias_to_fp16"), val = tensor<fp16, [1280]>(BLOBFILE(path = tensor<string, []>("@model_path/weights/weight.bin"), offset = tensor<uint64, []>(1247728576)))];
            tensor<fp16, [1, 1280, 1, 1500]> var_8687_cast_fp16 = conv(bias = blocks_31_attn_out_bias_to_fp16, dilations = var_8687_dilations_0, groups = var_8687_groups_0, pad = var_8687_pad_0, pad_type = var_8687_pad_type_0, strides = var_8687_strides_0, weight = blocks_31_attn_out_weight_to_fp16, x = input_315_cast_fp16)[name = tensor<string, []>("op_8687_cast_fp16")];
            tensor<fp16, [1, 1280, 1, 1500]> inputs_127_cast_fp16 = add(x = inputs_125_cast_fp16, y = var_8687_cast_fp16)[name = tensor<string, []>("inputs_127_cast_fp16")];
            tensor<int32, [1]> input_317_axes_0 = const()[name = tensor<string, []>("input_317_axes_0"), val = tensor<int32, [1]>([1])];
            tensor<fp16, [1280]> input_317_gamma_0_to_fp16 = const()[name = tensor<string, []>("input_317_gamma_0_to_fp16"), val = tensor<fp16, [1280]>(BLOBFILE(path = tensor<string, []>("@model_path/weights/weight.bin"), offset = tensor<uint64, []>(1247731200)))];
            tensor<fp16, [1280]> input_317_beta_0_to_fp16 = const()[name = tensor<string, []>("input_317_beta_0_to_fp16"), val = tensor<fp16, [1280]>(BLOBFILE(path = tensor<string, []>("@model_path/weights/weight.bin"), offset = tensor<uint64, []>(1247733824)))];
            tensor<fp16, []> var_8697_to_fp16 = const()[name = tensor<string, []>("op_8697_to_fp16"), val = tensor<fp16, []>(0x1.5p-17)];
            tensor<fp16, [1, 1280, 1, 1500]> input_317_cast_fp16 = layer_norm(axes = input_317_axes_0, beta = input_317_beta_0_to_fp16, epsilon = var_8697_to_fp16, gamma = input_317_gamma_0_to_fp16, x = inputs_127_cast_fp16)[name = tensor<string, []>("input_317_cast_fp16")];
            tensor<string, []> input_319_pad_type_0 = const()[name = tensor<string, []>("input_319_pad_type_0"), val = tensor<string, []>("valid")];
            tensor<int32, [2]> input_319_strides_0 = const()[name = tensor<string, []>("input_319_strides_0"), val = tensor<int32, [2]>([1, 1])];
            tensor<int32, [4]> input_319_pad_0 = const()[name = tensor<string, []>("input_319_pad_0"), val = tensor<int32, [4]>([0, 0, 0, 0])];
            tensor<int32, [2]> input_319_dilations_0 = const()[name = tensor<string, []>("input_319_dilations_0"), val = tensor<int32, [2]>([1, 1])];
            tensor<int32, []> input_319_groups_0 = const()[name = tensor<string, []>("input_319_groups_0"), val = tensor<int32, []>(1)];
            tensor<fp16, [5120, 1280, 1, 1]> blocks_31_mlp_0_weight_to_fp16 = const()[name = tensor<string, []>("blocks_31_mlp_0_weight_to_fp16"), val = tensor<fp16, [5120, 1280, 1, 1]>(BLOBFILE(path = tensor<string, []>("@model_path/weights/weight.bin"), offset = tensor<uint64, []>(1247736448)))];
            tensor<fp16, [5120]> blocks_31_mlp_0_bias_to_fp16 = const()[name = tensor<string, []>("blocks_31_mlp_0_bias_to_fp16"), val = tensor<fp16, [5120]>(BLOBFILE(path = tensor<string, []>("@model_path/weights/weight.bin"), offset = tensor<uint64, []>(1260843712)))];
            tensor<fp16, [1, 5120, 1, 1500]> input_319_cast_fp16 = conv(bias = blocks_31_mlp_0_bias_to_fp16, dilations = input_319_dilations_0, groups = input_319_groups_0, pad = input_319_pad_0, pad_type = input_319_pad_type_0, strides = input_319_strides_0, weight = blocks_31_mlp_0_weight_to_fp16, x = input_317_cast_fp16)[name = tensor<string, []>("input_319_cast_fp16")];
            tensor<string, []> input_mode_0 = const()[name = tensor<string, []>("input_mode_0"), val = tensor<string, []>("EXACT")];
            tensor<fp16, [1, 5120, 1, 1500]> input_cast_fp16 = gelu(mode = input_mode_0, x = input_319_cast_fp16)[name = tensor<string, []>("input_cast_fp16")];
            tensor<string, []> var_8723_pad_type_0 = const()[name = tensor<string, []>("op_8723_pad_type_0"), val = tensor<string, []>("valid")];
            tensor<int32, [2]> var_8723_strides_0 = const()[name = tensor<string, []>("op_8723_strides_0"), val = tensor<int32, [2]>([1, 1])];
            tensor<int32, [4]> var_8723_pad_0 = const()[name = tensor<string, []>("op_8723_pad_0"), val = tensor<int32, [4]>([0, 0, 0, 0])];
            tensor<int32, [2]> var_8723_dilations_0 = const()[name = tensor<string, []>("op_8723_dilations_0"), val = tensor<int32, [2]>([1, 1])];
            tensor<int32, []> var_8723_groups_0 = const()[name = tensor<string, []>("op_8723_groups_0"), val = tensor<int32, []>(1)];
            tensor<fp16, [1280, 5120, 1, 1]> blocks_31_mlp_2_weight_to_fp16 = const()[name = tensor<string, []>("blocks_31_mlp_2_weight_to_fp16"), val = tensor<fp16, [1280, 5120, 1, 1]>(BLOBFILE(path = tensor<string, []>("@model_path/weights/weight.bin"), offset = tensor<uint64, []>(1260854016)))];
            tensor<fp16, [1280]> blocks_31_mlp_2_bias_to_fp16 = const()[name = tensor<string, []>("blocks_31_mlp_2_bias_to_fp16"), val = tensor<fp16, [1280]>(BLOBFILE(path = tensor<string, []>("@model_path/weights/weight.bin"), offset = tensor<uint64, []>(1273961280)))];
            tensor<fp16, [1, 1280, 1, 1500]> var_8723_cast_fp16 = conv(bias = blocks_31_mlp_2_bias_to_fp16, dilations = var_8723_dilations_0, groups = var_8723_groups_0, pad = var_8723_pad_0, pad_type = var_8723_pad_type_0, strides = var_8723_strides_0, weight = blocks_31_mlp_2_weight_to_fp16, x = input_cast_fp16)[name = tensor<string, []>("op_8723_cast_fp16")];
            tensor<fp16, [1, 1280, 1, 1500]> inputs_cast_fp16 = add(x = inputs_127_cast_fp16, y = var_8723_cast_fp16)[name = tensor<string, []>("inputs_cast_fp16")];
            tensor<int32, [1]> x_axes_0 = const()[name = tensor<string, []>("x_axes_0"), val = tensor<int32, [1]>([1])];
            tensor<fp16, [1280]> x_gamma_0_to_fp16 = const()[name = tensor<string, []>("x_gamma_0_to_fp16"), val = tensor<fp16, [1280]>(BLOBFILE(path = tensor<string, []>("@model_path/weights/weight.bin"), offset = tensor<uint64, []>(1273963904)))];
            tensor<fp16, [1280]> x_beta_0_to_fp16 = const()[name = tensor<string, []>("x_beta_0_to_fp16"), val = tensor<fp16, [1280]>(BLOBFILE(path = tensor<string, []>("@model_path/weights/weight.bin"), offset = tensor<uint64, []>(1273966528)))];
            tensor<fp16, []> var_8737_to_fp16 = const()[name = tensor<string, []>("op_8737_to_fp16"), val = tensor<fp16, []>(0x1.5p-17)];
            tensor<fp16, [1, 1280, 1, 1500]> x_cast_fp16 = layer_norm(axes = x_axes_0, beta = x_beta_0_to_fp16, epsilon = var_8737_to_fp16, gamma = x_gamma_0_to_fp16, x = inputs_cast_fp16)[name = tensor<string, []>("x_cast_fp16")];
            tensor<int32, [1]> var_8748_axes_0 = const()[name = tensor<string, []>("op_8748_axes_0"), val = tensor<int32, [1]>([2])];
            tensor<fp16, [1, 1280, 1500]> var_8748_cast_fp16 = squeeze(axes = var_8748_axes_0, x = x_cast_fp16)[name = tensor<string, []>("op_8748_cast_fp16")];
            tensor<int32, [3]> var_8751_perm_0 = const()[name = tensor<string, []>("op_8751_perm_0"), val = tensor<int32, [3]>([0, 2, 1])];
            tensor<string, []> var_8751_cast_fp16_to_fp32_dtype_0 = const()[name = tensor<string, []>("op_8751_cast_fp16_to_fp32_dtype_0"), val = tensor<string, []>("fp32")];
            tensor<fp16, [1, 1500, 1280]> var_8751_cast_fp16 = transpose(perm = var_8751_perm_0, x = var_8748_cast_fp16)[name = tensor<string, []>("transpose_0")];
            tensor<fp32, [1, 1500, 1280]> output = cast(dtype = var_8751_cast_fp16_to_fp32_dtype_0, x = var_8751_cast_fp16)[name = tensor<string, []>("cast_130")];
        } -> (output);
}